…
I0819 21:51:04.293258 13464 net.cpp:340] The NetState phase (0) differed from the phase (1) specified by a rule in layer data
I0819 21:51:04.293550 13464 net.cpp:50] Initializing net from parameters: 
name: "HED"
state {
  phase: TRAIN
}
layer {
  name: "data"
  type: "ImageLabelmapData"
  top: "data"
  top: "label"
  include {
    phase: TRAIN
  }
  transform_param {
    mirror: false
    color_transformation: LUV
  }
  image_data_param {
    source: "../../../data/pascal_context/train_pair-fold0.lst"
    batch_size: 1
    shuffle: true
    new_height: 0
    new_width: 0
    root_folder: "../../../data/pascal_context/"
  }
}
layer {
  name: "conv1_1"
  type: "Convolution"
  bottom: "data"
  top: "conv1_1"
  param {
    lr_mult: 1
    decay_mult: 1
  }
  param {
    lr_mult: 2
    decay_mult: 0
  }
  convolution_param {
    num_output: 64
    pad: 35
    kernel_size: 3
    weight_filler {
      type: "gaussian"
      std: 0.01
    }
    engine: CAFFE
  }
}
layer {
  name: "relu1_1"
  type: "ReLU"
  bottom: "conv1_1"
  top: "conv1_1"
}
layer {
  name: "conv1_2"
  type: "Convolution"
  bottom: "conv1_1"
  top: "conv1_2"
  param {
    lr_mult: 1
    decay_mult: 1
  }
  param {
    lr_mult: 2
    decay_mult: 0
  }
  convolution_param {
    num_output: 64
    pad: 1
    kernel_size: 3
    weight_filler {
      type: "gaussian"
      std: 0.01
    }
    engine: CAFFE
  }
}
layer {
  name: "relu1_2"
  type: "ReLU"
  bottom: "conv1_2"
  top: "conv1_2"
}
layer {
  name: "pool1"
  type: "Pooling"
  bottom: "conv1_2"
  top: "pool1"
  pooling_param {
    pool: MAX
    kernel_size: 2
    stride: 2
  }
}
layer {
  name: "conv2_1"
  type: "Convolution"
  bottom: "pool1"
  top: "conv2_1"
  param {
    lr_mult: 1
    decay_mult: 1
  }
  param {
    lr_mult: 2
    decay_mult: 0
  }
  convolution_param {
    num_output: 128
    pad: 1
    kernel_size: 3
    weight_filler {
      type: "gaussian"
      std: 0.01
    }
    engine: CAFFE
  }
}
layer {
  name: "relu2_1"
  type: "ReLU"
  bottom: "conv2_1"
  top: "conv2_1"
}
layer {
  name: "conv2_2"
  type: "Convolution"
  bottom: "conv2_1"
  top: "conv2_2"
  param {
    lr_mult: 1
    decay_mult: 1
  }
  param {
    lr_mult: 2
    decay_mult: 0
  }
  convolution_param {
    num_output: 128
    pad: 1
    kernel_size: 3
    weight_filler {
      type: "gaussian"
      std: 0.01
    }
    engine: CAFFE
  }
}
layer {
  name: "relu2_2"
  type: "ReLU"
  bottom: "conv2_2"
  top: "conv2_2"
}
layer {
  name: "pool2"
  type: "Pooling"
  bottom: "conv2_2"
  top: "pool2"
  pooling_param {
    pool: MAX
    kernel_size: 2
    stride: 2
  }
}
layer {
  name: "conv3_1"
  type: "Convolution"
  bottom: "pool2"
  top: "conv3_1"
  param {
    lr_mult: 1
    decay_mult: 1
  }
  param {
    lr_mult: 2
    decay_mult: 0
  }
  convolution_param {
    num_output: 256
    pad: 1
    kernel_size: 3
    weight_filler {
      type: "gaussian"
      std: 0.01
    }
    engine: CAFFE
  }
}
layer {
  name: "relu3_1"
  type: "ReLU"
  bottom: "conv3_1"
  top: "conv3_1"
}
layer {
  name: "conv3_2"
  type: "Convolution"
  bottom: "conv3_1"
  top: "conv3_2"
  param {
    lr_mult: 1
    decay_mult: 1
  }
  param {
    lr_mult: 2
    decay_mult: 0
  }
  convolution_param {
    num_output: 256
    pad: 1
    kernel_size: 3
    weight_filler {
      type: "gaussian"
      std: 0.01
    }
    engine: CAFFE
  }
}
layer {
  name: "relu3_2"
  type: "ReLU"
  bottom: "conv3_2"
  top: "conv3_2"
}
layer {
  name: "conv3_3"
  type: "Convolution"
  bottom: "conv3_2"
  top: "conv3_3"
  param {
    lr_mult: 1
    decay_mult: 1
  }
  param {
    lr_mult: 2
    decay_mult: 0
  }
  convolution_param {
    num_output: 256
    pad: 1
    kernel_size: 3
    weight_filler {
      type: "gaussian"
      std: 0.01
    }
    engine: CAFFE
  }
}
layer {
  name: "relu3_3"
  type: "ReLU"
  bottom: "conv3_3"
  top: "conv3_3"
}
layer {
  name: "pool3"
  type: "Pooling"
  bottom: "conv3_3"
  top: "pool3"
  pooling_param {
    pool: MAX
    kernel_size: 2
    stride: 2
  }
}
layer {
  name: "conv4_1"
  type: "Convolution"
  bottom: "pool3"
  top: "conv4_1"
  param {
    lr_mult: 1
    decay_mult: 1
  }
  param {
    lr_mult: 2
    decay_mult: 0
  }
  convolution_param {
    num_output: 512
    pad: 1
    kernel_size: 3
    weight_filler {
      type: "gaussian"
      std: 0.01
    }
    engine: CAFFE
  }
}
layer {
  name: "relu4_1"
  type: "ReLU"
  bottom: "conv4_1"
  top: "conv4_1"
}
layer {
  name: "conv4_2"
  type: "Convolution"
  bottom: "conv4_1"
  top: "conv4_2"
  param {
    lr_mult: 1
    decay_mult: 1
  }
  param {
    lr_mult: 2
    decay_mult: 0
  }
  convolution_param {
    num_output: 512
    pad: 1
    kernel_size: 3
    weight_filler {
      type: "gaussian"
      std: 0.01
    }
    engine: CAFFE
  }
}
layer {
  name: "relu4_2"
  type: "ReLU"
  bottom: "conv4_2"
  top: "conv4_2"
}
layer {
  name: "conv4_3"
  type: "Convolution"
  bottom: "conv4_2"
  top: "conv4_3"
  param {
    lr_mult: 1
    decay_mult: 1
  }
  param {
    lr_mult: 2
    decay_mult: 0
  }
  convolution_param {
    num_output: 512
    pad: 1
    kernel_size: 3
    weight_filler {
      type: "gaussian"
      std: 0.01
    }
    engine: CAFFE
  }
}
layer {
  name: "relu4_3"
  type: "ReLU"
  bottom: "conv4_3"
  top: "conv4_3"
}
layer {
  name: "pool4"
  type: "Pooling"
  bottom: "conv4_3"
  top: "pool4"
  pooling_param {
    pool: MAX
    kernel_size: 2
    stride: 2
  }
}
layer {
  name: "conv5_1"
  type: "Convolution"
  bottom: "pool4"
  top: "conv5_1"
  param {
    lr_mult: 100
    decay_mult: 1
  }
  param {
    lr_mult: 200
    decay_mult: 0
  }
  convolution_param {
    num_output: 512
    pad: 1
    kernel_size: 3
    weight_filler {
      type: "gaussian"
      std: 0.01
    }
    engine: CAFFE
  }
}
layer {
  name: "relu5_1"
  type: "ReLU"
  bottom: "conv5_1"
  top: "conv5_1"
}
layer {
  name: "conv5_2"
  type: "Convolution"
  bottom: "conv5_1"
  top: "conv5_2"
  param {
    lr_mult: 100
    decay_mult: 1
  }
  param {
    lr_mult: 200
    decay_mult: 0
  }
  convolution_param {
    num_output: 512
    pad: 1
    kernel_size: 3
    weight_filler {
      type: "gaussian"
      std: 0.01
    }
    engine: CAFFE
  }
}
layer {
  name: "relu5_2"
  type: "ReLU"
  bottom: "conv5_2"
  top: "conv5_2"
}
layer {
  name: "conv5_3"
  type: "Convolution"
  bottom: "conv5_2"
  top: "conv5_3"
  param {
    lr_mult: 100
    decay_mult: 1
  }
  param {
    lr_mult: 200
    decay_mult: 0
  }
  convolution_param {
    num_output: 512
    pad: 1
    kernel_size: 3
    weight_filler {
      type: "gaussian"
      std: 0.01
    }
    engine: CAFFE
  }
}
layer {
  name: "relu5_3"
  type: "ReLU"
  bottom: "conv5_3"
  top: "conv5_3"
}
layer {
  name: "score-dsn1"
  type: "Convolution"
  bottom: "conv1_2"
  top: "score-dsn1-up"
  param {
    lr_mult: 0.01
    decay_mult: 1
  }
  param {
    lr_mult: 0.02
    decay_mult: 0
  }
  convolution_param {
    num_output: 1
    kernel_size: 1
    weight_filler {
      type: "gaussian"
      std: 0.01
    }
    engine: CAFFE
  }
}
layer {
  name: "crop"
  type: "Crop"
  bottom: "score-dsn1-up"
  bottom: "data"
  top: "upscore-dsn1"
}
layer {
  type: "SigmoidCrossEntropyLoss"
  bottom: "upscore-dsn1"
  bottom: "label"
  top: "dsn1_loss"
  loss_weight: 1
}
layer {
  name: "score-dsn2"
  type: "Convolution"
  bottom: "conv2_2"
  top: "score-dsn2"
  param {
    lr_mult: 0.01
    decay_mult: 1
  }
  param {
    lr_mult: 0.02
    decay_mult: 0
  }
  convolution_param {
    num_output: 1
    kernel_size: 1
    weight_filler {
      type: "gaussian"
      std: 0.01
    }
    engine: CAFFE
  }
}
layer {
  name: "upsample_2"
  type: "Deconvolution"
  bottom: "score-dsn2"
  top: "score-dsn2-up"
  param {
    lr_mult: 0
    decay_mult: 1
  }
  param {
    lr_mult: 0
    decay_mult: 0
  }
  convolution_param {
    num_output: 1
    kernel_size: 4
    stride: 2
    weight_filler {
      type: "gaussian"
      std: 0.01
    }
  }
}
layer {
  name: "crop"
  type: "Crop"
  bottom: "score-dsn2-up"
  bottom: "data"
  top: "upscore-dsn2"
}
layer {
  type: "SigmoidCrossEntropyLoss"
  bottom: "upscore-dsn2"
  bottom: "label"
  top: "dsn2_loss"
  loss_weight: 1
}
layer {
  name: "score-dsn3"
  type: "Convolution"
  bottom: "conv3_3"
  top: "score-dsn3"
  param {
    lr_mult: 0.01
    decay_mult: 1
  }
  param {
    lr_mult: 0.02
    decay_mult: 0
  }
  convolution_param {
    num_output: 1
    kernel_size: 1
    weight_filler {
      type: "gaussian"
      std: 0.01
    }
    engine: CAFFE
  }
}
layer {
  name: "upsample_4"
  type: "Deconvolution"
  bottom: "score-dsn3"
  top: "score-dsn3-up"
  param {
    lr_mult: 0
    decay_mult: 1
  }
  param {
    lr_mult: 0
    decay_mult: 0
  }
  convolution_param {
    num_output: 1
    kernel_size: 8
    stride: 4
    weight_filler {
      type: "gaussian"
      std: 0.01
    }
  }
}
layer {
  name: "crop"
  type: "Crop"
  bottom: "score-dsn3-up"
  bottom: "data"
  top: "upscore-dsn3"
}
layer {
  type: "SigmoidCrossEntropyLoss"
  bottom: "upscore-dsn3"
  bottom: "label"
  top: "dsn3_loss"
  loss_weight: 1
}
layer {
  name: "score-dsn4"
  type: "Convolution"
  bottom: "conv4_3"
  top: "score-dsn4"
  param {
    lr_mult: 0.01
    decay_mult: 1
  }
  param {
    lr_mult: 0.02
    decay_mult: 0
  }
  convolution_param {
    num_output: 1
    kernel_size: 1
    weight_filler {
      type: "gaussian"
      std: 0.01
    }
    engine: CAFFE
  }
}
layer {
  name: "upsample_8"
  type: "Deconvolution"
  bottom: "score-dsn4"
  top: "score-dsn4-up"
  param {
    lr_mult: 0
    decay_mult: 1
  }
  param {
    lr_mult: 0
    decay_mult: 0
  }
  convolution_param {
    num_output: 1
    kernel_size: 16
    stride: 8
    weight_filler {
      type: "gaussian"
      std: 0.01
    }
  }
}
layer {
  name: "crop"
  type: "Crop"
  bottom: "score-dsn4-up"
  bottom: "data"
  top: "upscore-dsn4"
}
layer {
  type: "SigmoidCrossEntropyLoss"
  bottom: "upscore-dsn4"
  bottom: "label"
  top: "dsn4_loss"
  loss_weight: 1
}
layer {
  name: "score-dsn5"
  type: "Convolution"
  bottom: "conv5_3"
  top: "score-dsn5"
  param {
    lr_mult: 0.01
    decay_mult: 1
  }
  param {
    lr_mult: 0.02
    decay_mult: 0
  }
  convolution_param {
    num_output: 1
    kernel_size: 1
    weight_filler {
      type: "gaussian"
      std: 0.01
    }
    engine: CAFFE
  }
}
layer {
  name: "upsample_16"
  type: "Deconvolution"
  bottom: "score-dsn5"
  top: "score-dsn5-up"
  param {
    lr_mult: 0
    decay_mult: 1
  }
  param {
    lr_mult: 0
    decay_mult: 0
  }
  convolution_param {
    num_output: 1
    kernel_size: 32
    stride: 16
    weight_filler {
      type: "gaussian"
      std: 0.01
    }
  }
}
layer {
  name: "crop"
  type: "Crop"
  bottom: "score-dsn5-up"
  bottom: "data"
  top: "upscore-dsn5"
}
layer {
  type: "SigmoidCrossEntropyLoss"
  bottom: "upscore-dsn5"
  bottom: "label"
  top: "dsn5_loss"
  loss_weight: 1
}
layer {
  name: "concat"
  type: "Concat"
  bottom: "upscore-dsn1"
  bottom: "upscore-dsn2"
  bottom: "upscore-dsn3"
  bottom: "upscore-dsn4"
  bottom: "upscore-dsn5"
  top: "concat-upscore"
  concat_param {
    concat_dim: 1
  }
}
layer {
  name: "new-score-weighting"
  type: "Convolution"
  bottom: "concat-upscore"
  top: "upscore-fuse"
  param {
    lr_mult: 0.001
    decay_mult: 1
  }
  param {
    lr_mult: 0.002
    decay_mult: 0
  }
  convolution_param {
    num_output: 1
    kernel_size: 1
    weight_filler {
      type: "constant"
      value: 0.2
    }
    engine: CAFFE
  }
}
layer {
  type: "SigmoidCrossEntropyLoss"
  bottom: "upscore-fuse"
  bottom: "label"
  top: "fuse_loss"
  loss_weight: 1
}
I0819 21:51:04.293855 13464 layer_factory.hpp:76] Creating layer data
I0819 21:51:04.293875 13464 net.cpp:111] Creating Layer data
I0819 21:51:04.293882 13464 net.cpp:434] data -> data
I0819 21:51:04.293895 13464 net.cpp:434] data -> label
I0819 21:51:04.293905 13464 data_transformer.cpp:40] Selected color transformation: 2
I0819 21:51:04.293915 13464 image_labelmap_data_layer.cpp:40] Opening file ../../../data/pascal_context/train_pair-fold0.lst
I0819 21:51:04.294364 13464 image_labelmap_data_layer.cpp:50] Shuffling data
I0819 21:51:04.294431 13464 image_labelmap_data_layer.cpp:55] A total of 10 images.
I0819 21:51:04.297920 13464 image_labelmap_data_layer.cpp:109] output data size: 1,3,375,500
I0819 21:51:04.297928 13464 image_labelmap_data_layer.cpp:112] output label size: 1,1,375,500
I0819 21:51:04.315207 13464 net.cpp:156] Setting up data
I0819 21:51:04.315232 13464 net.cpp:164] Top shape: 1 3 375 500 (562500)
I0819 21:51:04.315239 13464 net.cpp:164] Top shape: 1 1 375 500 (187500)
I0819 21:51:04.315248 13464 layer_factory.hpp:76] Creating layer data_data_0_split
I0819 21:51:04.315264 13464 net.cpp:111] Creating Layer data_data_0_split
I0819 21:51:04.315270 13464 net.cpp:478] data_data_0_split <- data
I0819 21:51:04.315279 13464 net.cpp:434] data_data_0_split -> data_data_0_split_0
I0819 21:51:04.315294 13464 net.cpp:434] data_data_0_split -> data_data_0_split_1
I0819 21:51:04.315301 13464 net.cpp:434] data_data_0_split -> data_data_0_split_2
I0819 21:51:04.315311 13464 net.cpp:434] data_data_0_split -> data_data_0_split_3
I0819 21:51:04.315318 13464 net.cpp:434] data_data_0_split -> data_data_0_split_4
I0819 21:51:04.315328 13464 net.cpp:434] data_data_0_split -> data_data_0_split_5
I0819 21:51:04.315340 13464 net.cpp:156] Setting up data_data_0_split
I0819 21:51:04.315346 13464 net.cpp:164] Top shape: 1 3 375 500 (562500)
I0819 21:51:04.315349 13464 net.cpp:164] Top shape: 1 3 375 500 (562500)
I0819 21:51:04.315354 13464 net.cpp:164] Top shape: 1 3 375 500 (562500)
I0819 21:51:04.315358 13464 net.cpp:164] Top shape: 1 3 375 500 (562500)
I0819 21:51:04.315362 13464 net.cpp:164] Top shape: 1 3 375 500 (562500)
I0819 21:51:04.315366 13464 net.cpp:164] Top shape: 1 3 375 500 (562500)
I0819 21:51:04.315371 13464 layer_factory.hpp:76] Creating layer label_data_1_split
I0819 21:51:04.315379 13464 net.cpp:111] Creating Layer label_data_1_split
I0819 21:51:04.315383 13464 net.cpp:478] label_data_1_split <- label
I0819 21:51:04.315389 13464 net.cpp:434] label_data_1_split -> label_data_1_split_0
I0819 21:51:04.315399 13464 net.cpp:434] label_data_1_split -> label_data_1_split_1
I0819 21:51:04.315405 13464 net.cpp:434] label_data_1_split -> label_data_1_split_2
I0819 21:51:04.315412 13464 net.cpp:434] label_data_1_split -> label_data_1_split_3
I0819 21:51:04.315418 13464 net.cpp:434] label_data_1_split -> label_data_1_split_4
I0819 21:51:04.315425 13464 net.cpp:434] label_data_1_split -> label_data_1_split_5
I0819 21:51:04.315435 13464 net.cpp:156] Setting up label_data_1_split
I0819 21:51:04.315441 13464 net.cpp:164] Top shape: 1 1 375 500 (187500)
I0819 21:51:04.315445 13464 net.cpp:164] Top shape: 1 1 375 500 (187500)
I0819 21:51:04.315450 13464 net.cpp:164] Top shape: 1 1 375 500 (187500)
I0819 21:51:04.315454 13464 net.cpp:164] Top shape: 1 1 375 500 (187500)
I0819 21:51:04.315459 13464 net.cpp:164] Top shape: 1 1 375 500 (187500)
I0819 21:51:04.315464 13464 net.cpp:164] Top shape: 1 1 375 500 (187500)
I0819 21:51:04.315469 13464 layer_factory.hpp:76] Creating layer conv1_1
I0819 21:51:04.315477 13464 net.cpp:111] Creating Layer conv1_1
I0819 21:51:04.315481 13464 net.cpp:478] conv1_1 <- data_data_0_split_0
I0819 21:51:04.315490 13464 net.cpp:434] conv1_1 -> conv1_1
I0819 21:51:04.319545 13464 net.cpp:156] Setting up conv1_1
I0819 21:51:04.319638 13464 net.cpp:164] Top shape: 1 64 443 568 (16103936)
I0819 21:51:04.319658 13464 layer_factory.hpp:76] Creating layer relu1_1
I0819 21:51:04.319675 13464 net.cpp:111] Creating Layer relu1_1
I0819 21:51:04.319681 13464 net.cpp:478] relu1_1 <- conv1_1
I0819 21:51:04.319689 13464 net.cpp:420] relu1_1 -> conv1_1 (in-place)
I0819 21:51:04.319700 13464 net.cpp:156] Setting up relu1_1
I0819 21:51:04.319705 13464 net.cpp:164] Top shape: 1 64 443 568 (16103936)
I0819 21:51:04.319710 13464 layer_factory.hpp:76] Creating layer conv1_2
I0819 21:51:04.319720 13464 net.cpp:111] Creating Layer conv1_2
I0819 21:51:04.319723 13464 net.cpp:478] conv1_2 <- conv1_1
I0819 21:51:04.319730 13464 net.cpp:434] conv1_2 -> conv1_2
I0819 21:51:04.321930 13464 net.cpp:156] Setting up conv1_2
I0819 21:51:04.321957 13464 net.cpp:164] Top shape: 1 64 443 568 (16103936)
I0819 21:51:04.321975 13464 layer_factory.hpp:76] Creating layer relu1_2
I0819 21:51:04.321986 13464 net.cpp:111] Creating Layer relu1_2
I0819 21:51:04.321992 13464 net.cpp:478] relu1_2 <- conv1_2
I0819 21:51:04.322000 13464 net.cpp:420] relu1_2 -> conv1_2 (in-place)
I0819 21:51:04.322010 13464 net.cpp:156] Setting up relu1_2
I0819 21:51:04.322016 13464 net.cpp:164] Top shape: 1 64 443 568 (16103936)
I0819 21:51:04.322021 13464 layer_factory.hpp:76] Creating layer conv1_2_relu1_2_0_split
I0819 21:51:04.322028 13464 net.cpp:111] Creating Layer conv1_2_relu1_2_0_split
I0819 21:51:04.322032 13464 net.cpp:478] conv1_2_relu1_2_0_split <- conv1_2
I0819 21:51:04.322038 13464 net.cpp:434] conv1_2_relu1_2_0_split -> conv1_2_relu1_2_0_split_0
I0819 21:51:04.322051 13464 net.cpp:434] conv1_2_relu1_2_0_split -> conv1_2_relu1_2_0_split_1
I0819 21:51:04.322058 13464 net.cpp:156] Setting up conv1_2_relu1_2_0_split
I0819 21:51:04.322064 13464 net.cpp:164] Top shape: 1 64 443 568 (16103936)
I0819 21:51:04.322070 13464 net.cpp:164] Top shape: 1 64 443 568 (16103936)
I0819 21:51:04.322074 13464 layer_factory.hpp:76] Creating layer pool1
I0819 21:51:04.322086 13464 net.cpp:111] Creating Layer pool1
I0819 21:51:04.322090 13464 net.cpp:478] pool1 <- conv1_2_relu1_2_0_split_0
I0819 21:51:04.322098 13464 net.cpp:434] pool1 -> pool1
I0819 21:51:04.322106 13464 net.cpp:156] Setting up pool1
I0819 21:51:04.322113 13464 net.cpp:164] Top shape: 1 64 222 284 (4035072)
I0819 21:51:04.322116 13464 layer_factory.hpp:76] Creating layer conv2_1
I0819 21:51:04.322125 13464 net.cpp:111] Creating Layer conv2_1
I0819 21:51:04.322130 13464 net.cpp:478] conv2_1 <- pool1
I0819 21:51:04.322136 13464 net.cpp:434] conv2_1 -> conv2_1
I0819 21:51:04.323256 13464 net.cpp:156] Setting up conv2_1
I0819 21:51:04.323271 13464 net.cpp:164] Top shape: 1 128 222 284 (8070144)
I0819 21:51:04.323282 13464 layer_factory.hpp:76] Creating layer relu2_1
I0819 21:51:04.323290 13464 net.cpp:111] Creating Layer relu2_1
I0819 21:51:04.323295 13464 net.cpp:478] relu2_1 <- conv2_1
I0819 21:51:04.323302 13464 net.cpp:420] relu2_1 -> conv2_1 (in-place)
I0819 21:51:04.323309 13464 net.cpp:156] Setting up relu2_1
I0819 21:51:04.323314 13464 net.cpp:164] Top shape: 1 128 222 284 (8070144)
I0819 21:51:04.323318 13464 layer_factory.hpp:76] Creating layer conv2_2
I0819 21:51:04.323325 13464 net.cpp:111] Creating Layer conv2_2
I0819 21:51:04.323329 13464 net.cpp:478] conv2_2 <- conv2_1
I0819 21:51:04.323338 13464 net.cpp:434] conv2_2 -> conv2_2
I0819 21:51:04.327044 13464 net.cpp:156] Setting up conv2_2
I0819 21:51:04.327064 13464 net.cpp:164] Top shape: 1 128 222 284 (8070144)
I0819 21:51:04.327075 13464 layer_factory.hpp:76] Creating layer relu2_2
I0819 21:51:04.327086 13464 net.cpp:111] Creating Layer relu2_2
I0819 21:51:04.327092 13464 net.cpp:478] relu2_2 <- conv2_2
I0819 21:51:04.327102 13464 net.cpp:420] relu2_2 -> conv2_2 (in-place)
I0819 21:51:04.327112 13464 net.cpp:156] Setting up relu2_2
I0819 21:51:04.327118 13464 net.cpp:164] Top shape: 1 128 222 284 (8070144)
I0819 21:51:04.327122 13464 layer_factory.hpp:76] Creating layer conv2_2_relu2_2_0_split
I0819 21:51:04.327129 13464 net.cpp:111] Creating Layer conv2_2_relu2_2_0_split
I0819 21:51:04.327134 13464 net.cpp:478] conv2_2_relu2_2_0_split <- conv2_2
I0819 21:51:04.327139 13464 net.cpp:434] conv2_2_relu2_2_0_split -> conv2_2_relu2_2_0_split_0
I0819 21:51:04.327147 13464 net.cpp:434] conv2_2_relu2_2_0_split -> conv2_2_relu2_2_0_split_1
I0819 21:51:04.327154 13464 net.cpp:156] Setting up conv2_2_relu2_2_0_split
I0819 21:51:04.327160 13464 net.cpp:164] Top shape: 1 128 222 284 (8070144)
I0819 21:51:04.327165 13464 net.cpp:164] Top shape: 1 128 222 284 (8070144)
I0819 21:51:04.327169 13464 layer_factory.hpp:76] Creating layer pool2
I0819 21:51:04.327177 13464 net.cpp:111] Creating Layer pool2
I0819 21:51:04.327180 13464 net.cpp:478] pool2 <- conv2_2_relu2_2_0_split_0
I0819 21:51:04.327190 13464 net.cpp:434] pool2 -> pool2
I0819 21:51:04.327199 13464 net.cpp:156] Setting up pool2
I0819 21:51:04.327203 13464 net.cpp:164] Top shape: 1 128 111 142 (2017536)
I0819 21:51:04.327206 13464 layer_factory.hpp:76] Creating layer conv3_1
I0819 21:51:04.327211 13464 net.cpp:111] Creating Layer conv3_1
I0819 21:51:04.327214 13464 net.cpp:478] conv3_1 <- pool2
I0819 21:51:04.327219 13464 net.cpp:434] conv3_1 -> conv3_1
I0819 21:51:04.331172 13464 net.cpp:156] Setting up conv3_1
I0819 21:51:04.331192 13464 net.cpp:164] Top shape: 1 256 111 142 (4035072)
I0819 21:51:04.331246 13464 layer_factory.hpp:76] Creating layer relu3_1
I0819 21:51:04.331266 13464 net.cpp:111] Creating Layer relu3_1
I0819 21:51:04.331274 13464 net.cpp:478] relu3_1 <- conv3_1
I0819 21:51:04.331281 13464 net.cpp:420] relu3_1 -> conv3_1 (in-place)
I0819 21:51:04.331295 13464 net.cpp:156] Setting up relu3_1
I0819 21:51:04.331300 13464 net.cpp:164] Top shape: 1 256 111 142 (4035072)
I0819 21:51:04.331303 13464 layer_factory.hpp:76] Creating layer conv3_2
I0819 21:51:04.331313 13464 net.cpp:111] Creating Layer conv3_2
I0819 21:51:04.331318 13464 net.cpp:478] conv3_2 <- conv3_1
I0819 21:51:04.331323 13464 net.cpp:434] conv3_2 -> conv3_2
I0819 21:51:04.339818 13464 net.cpp:156] Setting up conv3_2
I0819 21:51:04.339853 13464 net.cpp:164] Top shape: 1 256 111 142 (4035072)
I0819 21:51:04.339865 13464 layer_factory.hpp:76] Creating layer relu3_2
I0819 21:51:04.339881 13464 net.cpp:111] Creating Layer relu3_2
I0819 21:51:04.339890 13464 net.cpp:478] relu3_2 <- conv3_2
I0819 21:51:04.339898 13464 net.cpp:420] relu3_2 -> conv3_2 (in-place)
I0819 21:51:04.339915 13464 net.cpp:156] Setting up relu3_2
I0819 21:51:04.339920 13464 net.cpp:164] Top shape: 1 256 111 142 (4035072)
I0819 21:51:04.339923 13464 layer_factory.hpp:76] Creating layer conv3_3
I0819 21:51:04.339933 13464 net.cpp:111] Creating Layer conv3_3
I0819 21:51:04.339936 13464 net.cpp:478] conv3_3 <- conv3_2
I0819 21:51:04.339946 13464 net.cpp:434] conv3_3 -> conv3_3
I0819 21:51:04.346005 13464 net.cpp:156] Setting up conv3_3
I0819 21:51:04.346025 13464 net.cpp:164] Top shape: 1 256 111 142 (4035072)
I0819 21:51:04.346035 13464 layer_factory.hpp:76] Creating layer relu3_3
I0819 21:51:04.346046 13464 net.cpp:111] Creating Layer relu3_3
I0819 21:51:04.346052 13464 net.cpp:478] relu3_3 <- conv3_3
I0819 21:51:04.346061 13464 net.cpp:420] relu3_3 -> conv3_3 (in-place)
I0819 21:51:04.346072 13464 net.cpp:156] Setting up relu3_3
I0819 21:51:04.346077 13464 net.cpp:164] Top shape: 1 256 111 142 (4035072)
I0819 21:51:04.346081 13464 layer_factory.hpp:76] Creating layer conv3_3_relu3_3_0_split
I0819 21:51:04.346087 13464 net.cpp:111] Creating Layer conv3_3_relu3_3_0_split
I0819 21:51:04.346091 13464 net.cpp:478] conv3_3_relu3_3_0_split <- conv3_3
I0819 21:51:04.346101 13464 net.cpp:434] conv3_3_relu3_3_0_split -> conv3_3_relu3_3_0_split_0
I0819 21:51:04.346108 13464 net.cpp:434] conv3_3_relu3_3_0_split -> conv3_3_relu3_3_0_split_1
I0819 21:51:04.346114 13464 net.cpp:156] Setting up conv3_3_relu3_3_0_split
I0819 21:51:04.346117 13464 net.cpp:164] Top shape: 1 256 111 142 (4035072)
I0819 21:51:04.346122 13464 net.cpp:164] Top shape: 1 256 111 142 (4035072)
I0819 21:51:04.346127 13464 layer_factory.hpp:76] Creating layer pool3
I0819 21:51:04.346133 13464 net.cpp:111] Creating Layer pool3
I0819 21:51:04.346138 13464 net.cpp:478] pool3 <- conv3_3_relu3_3_0_split_0
I0819 21:51:04.346146 13464 net.cpp:434] pool3 -> pool3
I0819 21:51:04.346154 13464 net.cpp:156] Setting up pool3
I0819 21:51:04.346158 13464 net.cpp:164] Top shape: 1 256 56 71 (1017856)
I0819 21:51:04.346160 13464 layer_factory.hpp:76] Creating layer conv4_1
I0819 21:51:04.346166 13464 net.cpp:111] Creating Layer conv4_1
I0819 21:51:04.346168 13464 net.cpp:478] conv4_1 <- pool3
I0819 21:51:04.346174 13464 net.cpp:434] conv4_1 -> conv4_1
I0819 21:51:04.361124 13464 net.cpp:156] Setting up conv4_1
I0819 21:51:04.361152 13464 net.cpp:164] Top shape: 1 512 56 71 (2035712)
I0819 21:51:04.361166 13464 layer_factory.hpp:76] Creating layer relu4_1
I0819 21:51:04.361184 13464 net.cpp:111] Creating Layer relu4_1
I0819 21:51:04.361191 13464 net.cpp:478] relu4_1 <- conv4_1
I0819 21:51:04.361202 13464 net.cpp:420] relu4_1 -> conv4_1 (in-place)
I0819 21:51:04.361215 13464 net.cpp:156] Setting up relu4_1
I0819 21:51:04.361222 13464 net.cpp:164] Top shape: 1 512 56 71 (2035712)
I0819 21:51:04.361225 13464 layer_factory.hpp:76] Creating layer conv4_2
I0819 21:51:04.361235 13464 net.cpp:111] Creating Layer conv4_2
I0819 21:51:04.361239 13464 net.cpp:478] conv4_2 <- conv4_1
I0819 21:51:04.361246 13464 net.cpp:434] conv4_2 -> conv4_2
I0819 21:51:04.386307 13464 net.cpp:156] Setting up conv4_2
I0819 21:51:04.386584 13464 net.cpp:164] Top shape: 1 512 56 71 (2035712)
I0819 21:51:04.386735 13464 layer_factory.hpp:76] Creating layer relu4_2
I0819 21:51:04.386853 13464 net.cpp:111] Creating Layer relu4_2
I0819 21:51:04.386958 13464 net.cpp:478] relu4_2 <- conv4_2
I0819 21:51:04.387068 13464 net.cpp:420] relu4_2 -> conv4_2 (in-place)
I0819 21:51:04.387182 13464 net.cpp:156] Setting up relu4_2
I0819 21:51:04.387378 13464 net.cpp:164] Top shape: 1 512 56 71 (2035712)
I0819 21:51:04.387486 13464 layer_factory.hpp:76] Creating layer conv4_3
I0819 21:51:04.387601 13464 net.cpp:111] Creating Layer conv4_3
I0819 21:51:04.387707 13464 net.cpp:478] conv4_3 <- conv4_2
I0819 21:51:04.387725 13464 net.cpp:434] conv4_3 -> conv4_3
I0819 21:51:04.412242 13464 net.cpp:156] Setting up conv4_3
I0819 21:51:04.412271 13464 net.cpp:164] Top shape: 1 512 56 71 (2035712)
I0819 21:51:04.412283 13464 layer_factory.hpp:76] Creating layer relu4_3
I0819 21:51:04.412293 13464 net.cpp:111] Creating Layer relu4_3
I0819 21:51:04.412315 13464 net.cpp:478] relu4_3 <- conv4_3
I0819 21:51:04.412323 13464 net.cpp:420] relu4_3 -> conv4_3 (in-place)
I0819 21:51:04.412335 13464 net.cpp:156] Setting up relu4_3
I0819 21:51:04.412354 13464 net.cpp:164] Top shape: 1 512 56 71 (2035712)
I0819 21:51:04.412358 13464 layer_factory.hpp:76] Creating layer conv4_3_relu4_3_0_split
I0819 21:51:04.412365 13464 net.cpp:111] Creating Layer conv4_3_relu4_3_0_split
I0819 21:51:04.412369 13464 net.cpp:478] conv4_3_relu4_3_0_split <- conv4_3
I0819 21:51:04.412375 13464 net.cpp:434] conv4_3_relu4_3_0_split -> conv4_3_relu4_3_0_split_0
I0819 21:51:04.412385 13464 net.cpp:434] conv4_3_relu4_3_0_split -> conv4_3_relu4_3_0_split_1
I0819 21:51:04.412395 13464 net.cpp:156] Setting up conv4_3_relu4_3_0_split
I0819 21:51:04.412400 13464 net.cpp:164] Top shape: 1 512 56 71 (2035712)
I0819 21:51:04.412402 13464 net.cpp:164] Top shape: 1 512 56 71 (2035712)
I0819 21:51:04.412405 13464 layer_factory.hpp:76] Creating layer pool4
I0819 21:51:04.412410 13464 net.cpp:111] Creating Layer pool4
I0819 21:51:04.412413 13464 net.cpp:478] pool4 <- conv4_3_relu4_3_0_split_0
I0819 21:51:04.412417 13464 net.cpp:434] pool4 -> pool4
I0819 21:51:04.412425 13464 net.cpp:156] Setting up pool4
I0819 21:51:04.412428 13464 net.cpp:164] Top shape: 1 512 28 36 (516096)
I0819 21:51:04.412432 13464 layer_factory.hpp:76] Creating layer conv5_1
I0819 21:51:04.412438 13464 net.cpp:111] Creating Layer conv5_1
I0819 21:51:04.412442 13464 net.cpp:478] conv5_1 <- pool4
I0819 21:51:04.412451 13464 net.cpp:434] conv5_1 -> conv5_1
I0819 21:51:04.436522 13464 net.cpp:156] Setting up conv5_1
I0819 21:51:04.436547 13464 net.cpp:164] Top shape: 1 512 28 36 (516096)
I0819 21:51:04.436556 13464 layer_factory.hpp:76] Creating layer relu5_1
I0819 21:51:04.436589 13464 net.cpp:111] Creating Layer relu5_1
I0819 21:51:04.436595 13464 net.cpp:478] relu5_1 <- conv5_1
I0819 21:51:04.436604 13464 net.cpp:420] relu5_1 -> conv5_1 (in-place)
I0819 21:51:04.436615 13464 net.cpp:156] Setting up relu5_1
I0819 21:51:04.436619 13464 net.cpp:164] Top shape: 1 512 28 36 (516096)
I0819 21:51:04.436635 13464 layer_factory.hpp:76] Creating layer conv5_2
I0819 21:51:04.436641 13464 net.cpp:111] Creating Layer conv5_2
I0819 21:51:04.436643 13464 net.cpp:478] conv5_2 <- conv5_1
I0819 21:51:04.436648 13464 net.cpp:434] conv5_2 -> conv5_2
I0819 21:51:04.459760 13464 net.cpp:156] Setting up conv5_2
I0819 21:51:04.459791 13464 net.cpp:164] Top shape: 1 512 28 36 (516096)
I0819 21:51:04.459805 13464 layer_factory.hpp:76] Creating layer relu5_2
I0819 21:51:04.459816 13464 net.cpp:111] Creating Layer relu5_2
I0819 21:51:04.459841 13464 net.cpp:478] relu5_2 <- conv5_2
I0819 21:51:04.459851 13464 net.cpp:420] relu5_2 -> conv5_2 (in-place)
I0819 21:51:04.459863 13464 net.cpp:156] Setting up relu5_2
I0819 21:51:04.459868 13464 net.cpp:164] Top shape: 1 512 28 36 (516096)
I0819 21:51:04.459872 13464 layer_factory.hpp:76] Creating layer conv5_3
I0819 21:51:04.459884 13464 net.cpp:111] Creating Layer conv5_3
I0819 21:51:04.459887 13464 net.cpp:478] conv5_3 <- conv5_2
I0819 21:51:04.459898 13464 net.cpp:434] conv5_3 -> conv5_3
I0819 21:51:04.483566 13464 net.cpp:156] Setting up conv5_3
I0819 21:51:04.483598 13464 net.cpp:164] Top shape: 1 512 28 36 (516096)
I0819 21:51:04.483628 13464 layer_factory.hpp:76] Creating layer relu5_3
I0819 21:51:04.483639 13464 net.cpp:111] Creating Layer relu5_3
I0819 21:51:04.483659 13464 net.cpp:478] relu5_3 <- conv5_3
I0819 21:51:04.483667 13464 net.cpp:420] relu5_3 -> conv5_3 (in-place)
I0819 21:51:04.483680 13464 net.cpp:156] Setting up relu5_3
I0819 21:51:04.483685 13464 net.cpp:164] Top shape: 1 512 28 36 (516096)
I0819 21:51:04.483688 13464 layer_factory.hpp:76] Creating layer score-dsn1
I0819 21:51:04.483705 13464 net.cpp:111] Creating Layer score-dsn1
I0819 21:51:04.483709 13464 net.cpp:478] score-dsn1 <- conv1_2_relu1_2_0_split_1
I0819 21:51:04.483716 13464 net.cpp:434] score-dsn1 -> score-dsn1-up
I0819 21:51:04.484560 13464 net.cpp:156] Setting up score-dsn1
I0819 21:51:04.484572 13464 net.cpp:164] Top shape: 1 1 443 568 (251624)
I0819 21:51:04.484596 13464 layer_factory.hpp:76] Creating layer crop
I0819 21:51:04.484602 13464 net.cpp:111] Creating Layer crop
I0819 21:51:04.484619 13464 net.cpp:478] crop <- score-dsn1-up
I0819 21:51:04.484624 13464 net.cpp:478] crop <- data_data_0_split_1
I0819 21:51:04.484630 13464 net.cpp:434] crop -> upscore-dsn1
I0819 21:51:04.484665 13464 net.cpp:156] Setting up crop
I0819 21:51:04.484670 13464 net.cpp:164] Top shape: 1 1 375 500 (187500)
I0819 21:51:04.484673 13464 layer_factory.hpp:76] Creating layer upscore-dsn1_crop_0_split
I0819 21:51:04.484678 13464 net.cpp:111] Creating Layer upscore-dsn1_crop_0_split
I0819 21:51:04.484680 13464 net.cpp:478] upscore-dsn1_crop_0_split <- upscore-dsn1
I0819 21:51:04.484685 13464 net.cpp:434] upscore-dsn1_crop_0_split -> upscore-dsn1_crop_0_split_0
I0819 21:51:04.484692 13464 net.cpp:434] upscore-dsn1_crop_0_split -> upscore-dsn1_crop_0_split_1
I0819 21:51:04.484702 13464 net.cpp:156] Setting up upscore-dsn1_crop_0_split
I0819 21:51:04.484709 13464 net.cpp:164] Top shape: 1 1 375 500 (187500)
I0819 21:51:04.484714 13464 net.cpp:164] Top shape: 1 1 375 500 (187500)
I0819 21:51:04.484717 13464 layer_factory.hpp:76] Creating layer 
I0819 21:51:04.484725 13464 net.cpp:111] Creating Layer 
I0819 21:51:04.484728 13464 net.cpp:478]  <- upscore-dsn1_crop_0_split_0
I0819 21:51:04.484735 13464 net.cpp:478]  <- label_data_1_split_0
I0819 21:51:04.484740 13464 net.cpp:434]  -> dsn1_loss
I0819 21:51:04.485354 13464 net.cpp:156] Setting up 
I0819 21:51:04.485366 13464 net.cpp:164] Top shape: (1)
I0819 21:51:04.485369 13464 net.cpp:169]     with loss weight 1
I0819 21:51:04.485384 13464 layer_factory.hpp:76] Creating layer score-dsn2
I0819 21:51:04.485396 13464 net.cpp:111] Creating Layer score-dsn2
I0819 21:51:04.485400 13464 net.cpp:478] score-dsn2 <- conv2_2_relu2_2_0_split_1
I0819 21:51:04.485406 13464 net.cpp:434] score-dsn2 -> score-dsn2
I0819 21:51:04.485505 13464 net.cpp:156] Setting up score-dsn2
I0819 21:51:04.485513 13464 net.cpp:164] Top shape: 1 1 222 284 (63048)
I0819 21:51:04.485522 13464 layer_factory.hpp:76] Creating layer upsample_2
I0819 21:51:04.485528 13464 net.cpp:111] Creating Layer upsample_2
I0819 21:51:04.485532 13464 net.cpp:478] upsample_2 <- score-dsn2
I0819 21:51:04.485535 13464 net.cpp:434] upsample_2 -> score-dsn2-up
I0819 21:51:04.486227 13464 net.cpp:156] Setting up upsample_2
I0819 21:51:04.486239 13464 net.cpp:164] Top shape: 1 1 446 570 (254220)
I0819 21:51:04.486248 13464 layer_factory.hpp:76] Creating layer crop
I0819 21:51:04.486258 13464 net.cpp:111] Creating Layer crop
I0819 21:51:04.486261 13464 net.cpp:478] crop <- score-dsn2-up
I0819 21:51:04.486268 13464 net.cpp:478] crop <- data_data_0_split_2
I0819 21:51:04.486274 13464 net.cpp:434] crop -> upscore-dsn2
I0819 21:51:04.486313 13464 net.cpp:156] Setting up crop
I0819 21:51:04.486320 13464 net.cpp:164] Top shape: 1 1 375 500 (187500)
I0819 21:51:04.486321 13464 layer_factory.hpp:76] Creating layer upscore-dsn2_crop_0_split
I0819 21:51:04.486328 13464 net.cpp:111] Creating Layer upscore-dsn2_crop_0_split
I0819 21:51:04.486333 13464 net.cpp:478] upscore-dsn2_crop_0_split <- upscore-dsn2
I0819 21:51:04.486340 13464 net.cpp:434] upscore-dsn2_crop_0_split -> upscore-dsn2_crop_0_split_0
I0819 21:51:04.486347 13464 net.cpp:434] upscore-dsn2_crop_0_split -> upscore-dsn2_crop_0_split_1
I0819 21:51:04.486356 13464 net.cpp:156] Setting up upscore-dsn2_crop_0_split
I0819 21:51:04.486362 13464 net.cpp:164] Top shape: 1 1 375 500 (187500)
I0819 21:51:04.486366 13464 net.cpp:164] Top shape: 1 1 375 500 (187500)
I0819 21:51:04.486368 13464 layer_factory.hpp:76] Creating layer 
I0819 21:51:04.486376 13464 net.cpp:111] Creating Layer 
I0819 21:51:04.486379 13464 net.cpp:478]  <- upscore-dsn2_crop_0_split_0
I0819 21:51:04.486385 13464 net.cpp:478]  <- label_data_1_split_1
I0819 21:51:04.486392 13464 net.cpp:434]  -> dsn2_loss
I0819 21:51:04.487025 13464 net.cpp:156] Setting up 
I0819 21:51:04.487038 13464 net.cpp:164] Top shape: (1)
I0819 21:51:04.487042 13464 net.cpp:169]     with loss weight 1
I0819 21:51:04.487056 13464 layer_factory.hpp:76] Creating layer score-dsn3
I0819 21:51:04.487064 13464 net.cpp:111] Creating Layer score-dsn3
I0819 21:51:04.487067 13464 net.cpp:478] score-dsn3 <- conv3_3_relu3_3_0_split_1
I0819 21:51:04.487073 13464 net.cpp:434] score-dsn3 -> score-dsn3
I0819 21:51:04.487149 13464 net.cpp:156] Setting up score-dsn3
I0819 21:51:04.487157 13464 net.cpp:164] Top shape: 1 1 111 142 (15762)
I0819 21:51:04.487170 13464 layer_factory.hpp:76] Creating layer upsample_4
I0819 21:51:04.487179 13464 net.cpp:111] Creating Layer upsample_4
I0819 21:51:04.487184 13464 net.cpp:478] upsample_4 <- score-dsn3
I0819 21:51:04.487190 13464 net.cpp:434] upsample_4 -> score-dsn3-up
I0819 21:51:04.487928 13464 net.cpp:156] Setting up upsample_4
I0819 21:51:04.487941 13464 net.cpp:164] Top shape: 1 1 448 572 (256256)
I0819 21:51:04.487951 13464 layer_factory.hpp:76] Creating layer crop
I0819 21:51:04.487960 13464 net.cpp:111] Creating Layer crop
I0819 21:51:04.487965 13464 net.cpp:478] crop <- score-dsn3-up
I0819 21:51:04.487970 13464 net.cpp:478] crop <- data_data_0_split_3
I0819 21:51:04.487974 13464 net.cpp:434] crop -> upscore-dsn3
I0819 21:51:04.488020 13464 net.cpp:156] Setting up crop
I0819 21:51:04.488025 13464 net.cpp:164] Top shape: 1 1 375 500 (187500)
I0819 21:51:04.488029 13464 layer_factory.hpp:76] Creating layer upscore-dsn3_crop_0_split
I0819 21:51:04.488036 13464 net.cpp:111] Creating Layer upscore-dsn3_crop_0_split
I0819 21:51:04.488040 13464 net.cpp:478] upscore-dsn3_crop_0_split <- upscore-dsn3
I0819 21:51:04.488047 13464 net.cpp:434] upscore-dsn3_crop_0_split -> upscore-dsn3_crop_0_split_0
I0819 21:51:04.488055 13464 net.cpp:434] upscore-dsn3_crop_0_split -> upscore-dsn3_crop_0_split_1
I0819 21:51:04.488063 13464 net.cpp:156] Setting up upscore-dsn3_crop_0_split
I0819 21:51:04.488066 13464 net.cpp:164] Top shape: 1 1 375 500 (187500)
I0819 21:51:04.488070 13464 net.cpp:164] Top shape: 1 1 375 500 (187500)
I0819 21:51:04.488075 13464 layer_factory.hpp:76] Creating layer 
I0819 21:51:04.488082 13464 net.cpp:111] Creating Layer 
I0819 21:51:04.488085 13464 net.cpp:478]  <- upscore-dsn3_crop_0_split_0
I0819 21:51:04.488090 13464 net.cpp:478]  <- label_data_1_split_2
I0819 21:51:04.488093 13464 net.cpp:434]  -> dsn3_loss
I0819 21:51:04.488724 13464 net.cpp:156] Setting up 
I0819 21:51:04.488736 13464 net.cpp:164] Top shape: (1)
I0819 21:51:04.488740 13464 net.cpp:169]     with loss weight 1
I0819 21:51:04.488754 13464 layer_factory.hpp:76] Creating layer score-dsn4
I0819 21:51:04.488766 13464 net.cpp:111] Creating Layer score-dsn4
I0819 21:51:04.488770 13464 net.cpp:478] score-dsn4 <- conv4_3_relu4_3_0_split_1
I0819 21:51:04.488776 13464 net.cpp:434] score-dsn4 -> score-dsn4
I0819 21:51:04.488859 13464 net.cpp:156] Setting up score-dsn4
I0819 21:51:04.488867 13464 net.cpp:164] Top shape: 1 1 56 71 (3976)
I0819 21:51:04.488875 13464 layer_factory.hpp:76] Creating layer upsample_8
I0819 21:51:04.488883 13464 net.cpp:111] Creating Layer upsample_8
I0819 21:51:04.488888 13464 net.cpp:478] upsample_8 <- score-dsn4
I0819 21:51:04.488893 13464 net.cpp:434] upsample_8 -> score-dsn4-up
I0819 21:51:04.489594 13464 net.cpp:156] Setting up upsample_8
I0819 21:51:04.489607 13464 net.cpp:164] Top shape: 1 1 456 576 (262656)
I0819 21:51:04.489616 13464 layer_factory.hpp:76] Creating layer crop
I0819 21:51:04.489624 13464 net.cpp:111] Creating Layer crop
I0819 21:51:04.489629 13464 net.cpp:478] crop <- score-dsn4-up
I0819 21:51:04.489635 13464 net.cpp:478] crop <- data_data_0_split_4
I0819 21:51:04.489639 13464 net.cpp:434] crop -> upscore-dsn4
I0819 21:51:04.489693 13464 net.cpp:156] Setting up crop
I0819 21:51:04.489701 13464 net.cpp:164] Top shape: 1 1 375 500 (187500)
I0819 21:51:04.489704 13464 layer_factory.hpp:76] Creating layer upscore-dsn4_crop_0_split
I0819 21:51:04.489711 13464 net.cpp:111] Creating Layer upscore-dsn4_crop_0_split
I0819 21:51:04.489714 13464 net.cpp:478] upscore-dsn4_crop_0_split <- upscore-dsn4
I0819 21:51:04.489722 13464 net.cpp:434] upscore-dsn4_crop_0_split -> upscore-dsn4_crop_0_split_0
I0819 21:51:04.489729 13464 net.cpp:434] upscore-dsn4_crop_0_split -> upscore-dsn4_crop_0_split_1
I0819 21:51:04.489737 13464 net.cpp:156] Setting up upscore-dsn4_crop_0_split
I0819 21:51:04.489742 13464 net.cpp:164] Top shape: 1 1 375 500 (187500)
I0819 21:51:04.489744 13464 net.cpp:164] Top shape: 1 1 375 500 (187500)
I0819 21:51:04.489747 13464 layer_factory.hpp:76] Creating layer 
I0819 21:51:04.489753 13464 net.cpp:111] Creating Layer 
I0819 21:51:04.489758 13464 net.cpp:478]  <- upscore-dsn4_crop_0_split_0
I0819 21:51:04.489763 13464 net.cpp:478]  <- label_data_1_split_3
I0819 21:51:04.489773 13464 net.cpp:434]  -> dsn4_loss
I0819 21:51:04.490384 13464 net.cpp:156] Setting up 
I0819 21:51:04.490396 13464 net.cpp:164] Top shape: (1)
I0819 21:51:04.490399 13464 net.cpp:169]     with loss weight 1
I0819 21:51:04.490414 13464 layer_factory.hpp:76] Creating layer score-dsn5
I0819 21:51:04.490439 13464 net.cpp:111] Creating Layer score-dsn5
I0819 21:51:04.490445 13464 net.cpp:478] score-dsn5 <- conv5_3
I0819 21:51:04.490451 13464 net.cpp:434] score-dsn5 -> score-dsn5
I0819 21:51:04.490520 13464 net.cpp:156] Setting up score-dsn5
I0819 21:51:04.490528 13464 net.cpp:164] Top shape: 1 1 28 36 (1008)
I0819 21:51:04.490536 13464 layer_factory.hpp:76] Creating layer upsample_16
I0819 21:51:04.490545 13464 net.cpp:111] Creating Layer upsample_16
I0819 21:51:04.490548 13464 net.cpp:478] upsample_16 <- score-dsn5
I0819 21:51:04.490556 13464 net.cpp:434] upsample_16 -> score-dsn5-up
I0819 21:51:04.491273 13464 net.cpp:156] Setting up upsample_16
I0819 21:51:04.491286 13464 net.cpp:164] Top shape: 1 1 464 592 (274688)
I0819 21:51:04.491294 13464 layer_factory.hpp:76] Creating layer crop
I0819 21:51:04.491302 13464 net.cpp:111] Creating Layer crop
I0819 21:51:04.491307 13464 net.cpp:478] crop <- score-dsn5-up
I0819 21:51:04.491314 13464 net.cpp:478] crop <- data_data_0_split_5
I0819 21:51:04.491320 13464 net.cpp:434] crop -> upscore-dsn5
I0819 21:51:04.491385 13464 net.cpp:156] Setting up crop
I0819 21:51:04.491392 13464 net.cpp:164] Top shape: 1 1 375 500 (187500)
I0819 21:51:04.491397 13464 layer_factory.hpp:76] Creating layer upscore-dsn5_crop_0_split
I0819 21:51:04.491403 13464 net.cpp:111] Creating Layer upscore-dsn5_crop_0_split
I0819 21:51:04.491408 13464 net.cpp:478] upscore-dsn5_crop_0_split <- upscore-dsn5
I0819 21:51:04.491415 13464 net.cpp:434] upscore-dsn5_crop_0_split -> upscore-dsn5_crop_0_split_0
I0819 21:51:04.491420 13464 net.cpp:434] upscore-dsn5_crop_0_split -> upscore-dsn5_crop_0_split_1
I0819 21:51:04.491427 13464 net.cpp:156] Setting up upscore-dsn5_crop_0_split
I0819 21:51:04.491433 13464 net.cpp:164] Top shape: 1 1 375 500 (187500)
I0819 21:51:04.491438 13464 net.cpp:164] Top shape: 1 1 375 500 (187500)
I0819 21:51:04.491442 13464 layer_factory.hpp:76] Creating layer 
I0819 21:51:04.491449 13464 net.cpp:111] Creating Layer 
I0819 21:51:04.491453 13464 net.cpp:478]  <- upscore-dsn5_crop_0_split_0
I0819 21:51:04.491458 13464 net.cpp:478]  <- label_data_1_split_4
I0819 21:51:04.491463 13464 net.cpp:434]  -> dsn5_loss
I0819 21:51:04.492070 13464 net.cpp:156] Setting up 
I0819 21:51:04.492082 13464 net.cpp:164] Top shape: (1)
I0819 21:51:04.492085 13464 net.cpp:169]     with loss weight 1
I0819 21:51:04.492100 13464 layer_factory.hpp:76] Creating layer concat
I0819 21:51:04.492108 13464 net.cpp:111] Creating Layer concat
I0819 21:51:04.492113 13464 net.cpp:478] concat <- upscore-dsn1_crop_0_split_1
I0819 21:51:04.492118 13464 net.cpp:478] concat <- upscore-dsn2_crop_0_split_1
I0819 21:51:04.492121 13464 net.cpp:478] concat <- upscore-dsn3_crop_0_split_1
I0819 21:51:04.492125 13464 net.cpp:478] concat <- upscore-dsn4_crop_0_split_1
I0819 21:51:04.492128 13464 net.cpp:478] concat <- upscore-dsn5_crop_0_split_1
I0819 21:51:04.492136 13464 net.cpp:434] concat -> concat-upscore
I0819 21:51:04.492146 13464 net.cpp:156] Setting up concat
I0819 21:51:04.492152 13464 net.cpp:164] Top shape: 1 5 375 500 (937500)
I0819 21:51:04.492157 13464 layer_factory.hpp:76] Creating layer new-score-weighting
I0819 21:51:04.492167 13464 net.cpp:111] Creating Layer new-score-weighting
I0819 21:51:04.492173 13464 net.cpp:478] new-score-weighting <- concat-upscore
I0819 21:51:04.492180 13464 net.cpp:434] new-score-weighting -> upscore-fuse
I0819 21:51:04.492813 13464 net.cpp:156] Setting up new-score-weighting
I0819 21:51:04.492825 13464 net.cpp:164] Top shape: 1 1 375 500 (187500)
I0819 21:51:04.492835 13464 layer_factory.hpp:76] Creating layer 
I0819 21:51:04.492844 13464 net.cpp:111] Creating Layer 
I0819 21:51:04.492849 13464 net.cpp:478]  <- upscore-fuse
I0819 21:51:04.492856 13464 net.cpp:478]  <- label_data_1_split_5
I0819 21:51:04.492859 13464 net.cpp:434]  -> fuse_loss
I0819 21:51:04.493455 13464 net.cpp:156] Setting up 
I0819 21:51:04.493468 13464 net.cpp:164] Top shape: (1)
…
python '../py/test.py' 'LUV' '../../../data/pascal_context/' '../../../data/pascal_context/test-fold0.lst' '../conf/deploy.prototxt' '/media/cabm/OS/Users/cabm/Mestrado/CODEs/HED-CODEs/HED-COLOR/examples/hed-pascal_context-LUV-test-fold0/result/bruteResDir/hed-pascal_context-LUV-test-fold0-iter_1/IN/' '/media/cabm/OS/Users/cabm/Mestrado/CODEs/HED-CODEs/HED-COLOR/examples/hed-pascal_context-LUV-test-fold0/caffe_models/hed-pascal_context-LUV-test-fold0_iter_1.caffemodel' || true

WARNING: Logging before InitGoogleLogging() is written to STDERR
I0819 21:52:23.434468 13547 net.cpp:50] Initializing net from parameters: 
name: "FCN"
input: "data"
input_dim: 1
input_dim: 3
input_dim: 500
input_dim: 500
state {
  phase: TEST
}
layer {
  name: "conv1_1"
  type: "Convolution"
  bottom: "data"
  top: "conv1_1"
  param {
    lr_mult: 1
    decay_mult: 1
  }
  param {
    lr_mult: 2
    decay_mult: 0
  }
  convolution_param {
    num_output: 64
    pad: 35
    kernel_size: 3
    engine: CAFFE
  }
}
layer {
  name: "relu1_1"
  type: "ReLU"
  bottom: "conv1_1"
  top: "conv1_1"
}
layer {
  name: "conv1_2"
  type: "Convolution"
  bottom: "conv1_1"
  top: "conv1_2"
  param {
    lr_mult: 1
    decay_mult: 1
  }
  param {
    lr_mult: 2
    decay_mult: 0
  }
  convolution_param {
    num_output: 64
    pad: 1
    kernel_size: 3
    engine: CAFFE
  }
}
layer {
  name: "relu1_2"
  type: "ReLU"
  bottom: "conv1_2"
  top: "conv1_2"
}
layer {
  name: "pool1"
  type: "Pooling"
  bottom: "conv1_2"
  top: "pool1"
  pooling_param {
    pool: MAX
    kernel_size: 2
    stride: 2
  }
}
layer {
  name: "conv2_1"
  type: "Convolution"
  bottom: "pool1"
  top: "conv2_1"
  param {
    lr_mult: 1
    decay_mult: 1
  }
  param {
    lr_mult: 2
    decay_mult: 0
  }
  convolution_param {
    num_output: 128
    pad: 1
    kernel_size: 3
    engine: CAFFE
  }
}
layer {
  name: "relu2_1"
  type: "ReLU"
  bottom: "conv2_1"
  top: "conv2_1"
}
layer {
  name: "conv2_2"
  type: "Convolution"
  bottom: "conv2_1"
  top: "conv2_2"
  param {
    lr_mult: 1
    decay_mult: 1
  }
  param {
    lr_mult: 2
    decay_mult: 0
  }
  convolution_param {
    num_output: 128
    pad: 1
    kernel_size: 3
    engine: CAFFE
  }
}
layer {
  name: "relu2_2"
  type: "ReLU"
  bottom: "conv2_2"
  top: "conv2_2"
}
layer {
  name: "pool2"
  type: "Pooling"
  bottom: "conv2_2"
  top: "pool2"
  pooling_param {
    pool: MAX
    kernel_size: 2
    stride: 2
  }
}
layer {
  name: "conv3_1"
  type: "Convolution"
  bottom: "pool2"
  top: "conv3_1"
  param {
    lr_mult: 1
    decay_mult: 1
  }
  param {
    lr_mult: 2
    decay_mult: 0
  }
  convolution_param {
    num_output: 256
    pad: 1
    kernel_size: 3
    engine: CAFFE
  }
}
layer {
  name: "relu3_1"
  type: "ReLU"
  bottom: "conv3_1"
  top: "conv3_1"
}
layer {
  name: "conv3_2"
  type: "Convolution"
  bottom: "conv3_1"
  top: "conv3_2"
  param {
    lr_mult: 1
    decay_mult: 1
  }
  param {
    lr_mult: 2
    decay_mult: 0
  }
  convolution_param {
    num_output: 256
    pad: 1
    kernel_size: 3
    engine: CAFFE
  }
}
layer {
  name: "relu3_2"
  type: "ReLU"
  bottom: "conv3_2"
  top: "conv3_2"
}
layer {
  name: "conv3_3"
  type: "Convolution"
  bottom: "conv3_2"
  top: "conv3_3"
  param {
    lr_mult: 1
    decay_mult: 1
  }
  param {
    lr_mult: 2
    decay_mult: 0
  }
  convolution_param {
    num_output: 256
    pad: 1
    kernel_size: 3
    engine: CAFFE
  }
}
layer {
  name: "relu3_3"
  type: "ReLU"
  bottom: "conv3_3"
  top: "conv3_3"
}
layer {
  name: "pool3"
  type: "Pooling"
  bottom: "conv3_3"
  top: "pool3"
  pooling_param {
    pool: MAX
    kernel_size: 2
    stride: 2
  }
}
layer {
  name: "conv4_1"
  type: "Convolution"
  bottom: "pool3"
  top: "conv4_1"
  param {
    lr_mult: 1
    decay_mult: 1
  }
  param {
    lr_mult: 2
    decay_mult: 0
  }
  convolution_param {
    num_output: 512
    pad: 1
    kernel_size: 3
    engine: CAFFE
  }
}
layer {
  name: "relu4_1"
  type: "ReLU"
  bottom: "conv4_1"
  top: "conv4_1"
}
layer {
  name: "conv4_2"
  type: "Convolution"
  bottom: "conv4_1"
  top: "conv4_2"
  param {
    lr_mult: 1
    decay_mult: 1
  }
  param {
    lr_mult: 2
    decay_mult: 0
  }
  convolution_param {
    num_output: 512
    pad: 1
    kernel_size: 3
    engine: CAFFE
  }
}
layer {
  name: "relu4_2"
  type: "ReLU"
  bottom: "conv4_2"
  top: "conv4_2"
}
layer {
  name: "conv4_3"
  type: "Convolution"
  bottom: "conv4_2"
  top: "conv4_3"
  param {
    lr_mult: 1
    decay_mult: 1
  }
  param {
    lr_mult: 2
    decay_mult: 0
  }
  convolution_param {
    num_output: 512
    pad: 1
    kernel_size: 3
    engine: CAFFE
  }
}
layer {
  name: "relu4_3"
  type: "ReLU"
  bottom: "conv4_3"
  top: "conv4_3"
}
layer {
  name: "pool4"
  type: "Pooling"
  bottom: "conv4_3"
  top: "pool4"
  pooling_param {
    pool: MAX
    kernel_size: 2
    stride: 2
  }
}
layer {
  name: "conv5_1"
  type: "Convolution"
  bottom: "pool4"
  top: "conv5_1"
  param {
    lr_mult: 100
    decay_mult: 1
  }
  param {
    lr_mult: 200
    decay_mult: 0
  }
  convolution_param {
    num_output: 512
    pad: 1
    kernel_size: 3
    engine: CAFFE
  }
}
layer {
  name: "relu5_1"
  type: "ReLU"
  bottom: "conv5_1"
  top: "conv5_1"
}
layer {
  name: "conv5_2"
  type: "Convolution"
  bottom: "conv5_1"
  top: "conv5_2"
  param {
    lr_mult: 100
    decay_mult: 1
  }
  param {
    lr_mult: 200
    decay_mult: 0
  }
  convolution_param {
    num_output: 512
    pad: 1
    kernel_size: 3
    engine: CAFFE
  }
}
layer {
  name: "relu5_2"
  type: "ReLU"
  bottom: "conv5_2"
  top: "conv5_2"
}
layer {
  name: "conv5_3"
  type: "Convolution"
  bottom: "conv5_2"
  top: "conv5_3"
  param {
    lr_mult: 100
    decay_mult: 1
  }
  param {
    lr_mult: 200
    decay_mult: 0
  }
  convolution_param {
    num_output: 512
    pad: 1
    kernel_size: 3
    engine: CAFFE
  }
}
layer {
  name: "relu5_3"
  type: "ReLU"
  bottom: "conv5_3"
  top: "conv5_3"
}
layer {
  name: "score-dsn1"
  type: "Convolution"
  bottom: "conv1_2"
  top: "score-dsn1-up"
  param {
    lr_mult: 0.01
    decay_mult: 1
  }
  param {
    lr_mult: 0.02
    decay_mult: 0
  }
  convolution_param {
    num_output: 1
    kernel_size: 1
    engine: CAFFE
  }
}
layer {
  name: "crop"
  type: "Crop"
  bottom: "score-dsn1-up"
  bottom: "data"
  top: "upscore-dsn1"
}
layer {
  name: "sigmoid-dsn1"
  type: "Sigmoid"
  bottom: "upscore-dsn1"
  top: "sigmoid-dsn1"
}
layer {
  name: "score-dsn2"
  type: "Convolution"
  bottom: "conv2_2"
  top: "score-dsn2"
  param {
    lr_mult: 0.01
    decay_mult: 1
  }
  param {
    lr_mult: 0.02
    decay_mult: 0
  }
  convolution_param {
    num_output: 1
    kernel_size: 1
    engine: CAFFE
  }
}
layer {
  name: "upsample_2"
  type: "Deconvolution"
  bottom: "score-dsn2"
  top: "score-dsn2-up"
  param {
    lr_mult: 0
    decay_mult: 1
  }
  param {
    lr_mult: 0
    decay_mult: 0
  }
  convolution_param {
    num_output: 1
    kernel_size: 4
    stride: 2
  }
}
layer {
  name: "crop"
  type: "Crop"
  bottom: "score-dsn2-up"
  bottom: "data"
  top: "upscore-dsn2"
}
layer {
  name: "sigmoid-dsn2"
  type: "Sigmoid"
  bottom: "upscore-dsn2"
  top: "sigmoid-dsn2"
}
layer {
  name: "score-dsn3"
  type: "Convolution"
  bottom: "conv3_3"
  top: "score-dsn3"
  param {
    lr_mult: 0.01
    decay_mult: 1
  }
  param {
    lr_mult: 0.02
    decay_mult: 0
  }
  convolution_param {
    num_output: 1
    kernel_size: 1
    engine: CAFFE
  }
}
layer {
  name: "upsample_4"
  type: "Deconvolution"
  bottom: "score-dsn3"
  top: "score-dsn3-up"
  param {
    lr_mult: 0
    decay_mult: 1
  }
  param {
    lr_mult: 0
    decay_mult: 0
  }
  convolution_param {
    num_output: 1
    kernel_size: 8
    stride: 4
  }
}
layer {
  name: "crop"
  type: "Crop"
  bottom: "score-dsn3-up"
  bottom: "data"
  top: "upscore-dsn3"
}
layer {
  name: "sigmoid-dsn3"
  type: "Sigmoid"
  bottom: "upscore-dsn3"
  top: "sigmoid-dsn3"
}
layer {
  name: "score-dsn4"
  type: "Convolution"
  bottom: "conv4_3"
  top: "score-dsn4"
  param {
    lr_mult: 0.01
    decay_mult: 1
  }
  param {
    lr_mult: 0.02
    decay_mult: 0
  }
  convolution_param {
    num_output: 1
    kernel_size: 1
    engine: CAFFE
  }
}
layer {
  name: "upsample_8"
  type: "Deconvolution"
  bottom: "score-dsn4"
  top: "score-dsn4-up"
  param {
    lr_mult: 0
    decay_mult: 1
  }
  param {
    lr_mult: 0
    decay_mult: 0
  }
  convolution_param {
    num_output: 1
    kernel_size: 16
    stride: 8
  }
}
layer {
  name: "crop"
  type: "Crop"
  bottom: "score-dsn4-up"
  bottom: "data"
  top: "upscore-dsn4"
}
layer {
  name: "sigmoid-dsn4"
  type: "Sigmoid"
  bottom: "upscore-dsn4"
  top: "sigmoid-dsn4"
}
layer {
  name: "score-dsn5"
  type: "Convolution"
  bottom: "conv5_3"
  top: "score-dsn5"
  param {
    lr_mult: 0.01
    decay_mult: 1
  }
  param {
    lr_mult: 0.02
    decay_mult: 0
  }
  convolution_param {
    num_output: 1
    kernel_size: 1
    engine: CAFFE
  }
}
layer {
  name: "upsample_16"
  type: "Deconvolution"
  bottom: "score-dsn5"
  top: "score-dsn5-up"
  param {
    lr_mult: 0
    decay_mult: 1
  }
  param {
    lr_mult: 0
    decay_mult: 0
  }
  convolution_param {
    num_output: 1
    kernel_size: 32
    stride: 16
  }
}
layer {
  name: "crop"
  type: "Crop"
  bottom: "score-dsn5-up"
  bottom: "data"
  top: "upscore-dsn5"
}
layer {
  name: "sigmoid-dsn5"
  type: "Sigmoid"
  bottom: "upscore-dsn5"
  top: "sigmoid-dsn5"
}
layer {
  name: "concat"
  type: "Concat"
  bottom: "upscore-dsn1"
  bottom: "upscore-dsn2"
  bottom: "upscore-dsn3"
  bottom: "upscore-dsn4"
  bottom: "upscore-dsn5"
  top: "concat-upscore"
  concat_param {
    concat_dim: 1
  }
}
layer {
  name: "new-score-weighting"
  type: "Convolution"
  bottom: "concat-upscore"
  top: "upscore-fuse"
  param {
    lr_mult: 0.01
    decay_mult: 1
  }
  param {
    lr_mult: 0.02
    decay_mult: 0
  }
  convolution_param {
    num_output: 1
    kernel_size: 1
    weight_filler {
      type: "constant"
      value: 0.2
    }
    engine: CAFFE
  }
}
layer {
  name: "sigmoid-fuse"
  type: "Sigmoid"
  bottom: "upscore-fuse"
  top: "sigmoid-fuse"
}
I0819 21:52:23.434722 13547 net.cpp:436] Input 0 -> data
I0819 21:52:23.434748 13547 layer_factory.hpp:76] Creating layer data_input_0_split
I0819 21:52:23.434758 13547 net.cpp:111] Creating Layer data_input_0_split
I0819 21:52:23.434763 13547 net.cpp:478] data_input_0_split <- data
I0819 21:52:23.434770 13547 net.cpp:434] data_input_0_split -> data_input_0_split_0
I0819 21:52:23.434779 13547 net.cpp:434] data_input_0_split -> data_input_0_split_1
I0819 21:52:23.434788 13547 net.cpp:434] data_input_0_split -> data_input_0_split_2
I0819 21:52:23.434795 13547 net.cpp:434] data_input_0_split -> data_input_0_split_3
I0819 21:52:23.434803 13547 net.cpp:434] data_input_0_split -> data_input_0_split_4
I0819 21:52:23.434814 13547 net.cpp:434] data_input_0_split -> data_input_0_split_5
I0819 21:52:23.434824 13547 net.cpp:156] Setting up data_input_0_split
I0819 21:52:23.434831 13547 net.cpp:164] Top shape: 1 3 500 500 (750000)
I0819 21:52:23.434837 13547 net.cpp:164] Top shape: 1 3 500 500 (750000)
I0819 21:52:23.434842 13547 net.cpp:164] Top shape: 1 3 500 500 (750000)
I0819 21:52:23.434847 13547 net.cpp:164] Top shape: 1 3 500 500 (750000)
I0819 21:52:23.434852 13547 net.cpp:164] Top shape: 1 3 500 500 (750000)
I0819 21:52:23.434857 13547 net.cpp:164] Top shape: 1 3 500 500 (750000)
I0819 21:52:23.434861 13547 layer_factory.hpp:76] Creating layer conv1_1
I0819 21:52:23.434870 13547 net.cpp:111] Creating Layer conv1_1
I0819 21:52:23.434873 13547 net.cpp:478] conv1_1 <- data_input_0_split_0
I0819 21:52:23.434882 13547 net.cpp:434] conv1_1 -> conv1_1
I0819 21:52:23.442070 13547 net.cpp:156] Setting up conv1_1
I0819 21:52:23.442095 13547 net.cpp:164] Top shape: 1 64 568 568 (20647936)
I0819 21:52:23.442129 13547 layer_factory.hpp:76] Creating layer relu1_1
I0819 21:52:23.442157 13547 net.cpp:111] Creating Layer relu1_1
I0819 21:52:23.442171 13547 net.cpp:478] relu1_1 <- conv1_1
I0819 21:52:23.442201 13547 net.cpp:420] relu1_1 -> conv1_1 (in-place)
I0819 21:52:23.442214 13547 net.cpp:156] Setting up relu1_1
I0819 21:52:23.442219 13547 net.cpp:164] Top shape: 1 64 568 568 (20647936)
I0819 21:52:23.442224 13547 layer_factory.hpp:76] Creating layer conv1_2
I0819 21:52:23.442234 13547 net.cpp:111] Creating Layer conv1_2
I0819 21:52:23.442239 13547 net.cpp:478] conv1_2 <- conv1_1
I0819 21:52:23.442245 13547 net.cpp:434] conv1_2 -> conv1_2
I0819 21:52:23.443469 13547 net.cpp:156] Setting up conv1_2
I0819 21:52:23.443486 13547 net.cpp:164] Top shape: 1 64 568 568 (20647936)
I0819 21:52:23.443496 13547 layer_factory.hpp:76] Creating layer relu1_2
I0819 21:52:23.443506 13547 net.cpp:111] Creating Layer relu1_2
I0819 21:52:23.443508 13547 net.cpp:478] relu1_2 <- conv1_2
I0819 21:52:23.443514 13547 net.cpp:420] relu1_2 -> conv1_2 (in-place)
I0819 21:52:23.443521 13547 net.cpp:156] Setting up relu1_2
I0819 21:52:23.443524 13547 net.cpp:164] Top shape: 1 64 568 568 (20647936)
I0819 21:52:23.443526 13547 layer_factory.hpp:76] Creating layer conv1_2_relu1_2_0_split
I0819 21:52:23.443531 13547 net.cpp:111] Creating Layer conv1_2_relu1_2_0_split
I0819 21:52:23.443534 13547 net.cpp:478] conv1_2_relu1_2_0_split <- conv1_2
I0819 21:52:23.443539 13547 net.cpp:434] conv1_2_relu1_2_0_split -> conv1_2_relu1_2_0_split_0
I0819 21:52:23.443548 13547 net.cpp:434] conv1_2_relu1_2_0_split -> conv1_2_relu1_2_0_split_1
I0819 21:52:23.443555 13547 net.cpp:156] Setting up conv1_2_relu1_2_0_split
I0819 21:52:23.443562 13547 net.cpp:164] Top shape: 1 64 568 568 (20647936)
I0819 21:52:23.443565 13547 net.cpp:164] Top shape: 1 64 568 568 (20647936)
I0819 21:52:23.443568 13547 layer_factory.hpp:76] Creating layer pool1
I0819 21:52:23.443576 13547 net.cpp:111] Creating Layer pool1
I0819 21:52:23.443580 13547 net.cpp:478] pool1 <- conv1_2_relu1_2_0_split_0
I0819 21:52:23.443589 13547 net.cpp:434] pool1 -> pool1
I0819 21:52:23.443598 13547 net.cpp:156] Setting up pool1
I0819 21:52:23.443600 13547 net.cpp:164] Top shape: 1 64 284 284 (5161984)
I0819 21:52:23.443603 13547 layer_factory.hpp:76] Creating layer conv2_1
I0819 21:52:23.443608 13547 net.cpp:111] Creating Layer conv2_1
I0819 21:52:23.443610 13547 net.cpp:478] conv2_1 <- pool1
I0819 21:52:23.443615 13547 net.cpp:434] conv2_1 -> conv2_1
I0819 21:52:23.444253 13547 net.cpp:156] Setting up conv2_1
I0819 21:52:23.444267 13547 net.cpp:164] Top shape: 1 128 284 284 (10323968)
I0819 21:52:23.444283 13547 layer_factory.hpp:76] Creating layer relu2_1
I0819 21:52:23.444294 13547 net.cpp:111] Creating Layer relu2_1
I0819 21:52:23.444299 13547 net.cpp:478] relu2_1 <- conv2_1
I0819 21:52:23.444306 13547 net.cpp:420] relu2_1 -> conv2_1 (in-place)
I0819 21:52:23.444314 13547 net.cpp:156] Setting up relu2_1
I0819 21:52:23.444319 13547 net.cpp:164] Top shape: 1 128 284 284 (10323968)
I0819 21:52:23.444322 13547 layer_factory.hpp:76] Creating layer conv2_2
I0819 21:52:23.444329 13547 net.cpp:111] Creating Layer conv2_2
I0819 21:52:23.444331 13547 net.cpp:478] conv2_2 <- conv2_1
I0819 21:52:23.444337 13547 net.cpp:434] conv2_2 -> conv2_2
I0819 21:52:23.444950 13547 net.cpp:156] Setting up conv2_2
I0819 21:52:23.444962 13547 net.cpp:164] Top shape: 1 128 284 284 (10323968)
I0819 21:52:23.444972 13547 layer_factory.hpp:76] Creating layer relu2_2
I0819 21:52:23.444978 13547 net.cpp:111] Creating Layer relu2_2
I0819 21:52:23.444983 13547 net.cpp:478] relu2_2 <- conv2_2
I0819 21:52:23.444989 13547 net.cpp:420] relu2_2 -> conv2_2 (in-place)
I0819 21:52:23.444996 13547 net.cpp:156] Setting up relu2_2
I0819 21:52:23.445001 13547 net.cpp:164] Top shape: 1 128 284 284 (10323968)
I0819 21:52:23.445005 13547 layer_factory.hpp:76] Creating layer conv2_2_relu2_2_0_split
I0819 21:52:23.445011 13547 net.cpp:111] Creating Layer conv2_2_relu2_2_0_split
I0819 21:52:23.445015 13547 net.cpp:478] conv2_2_relu2_2_0_split <- conv2_2
I0819 21:52:23.445022 13547 net.cpp:434] conv2_2_relu2_2_0_split -> conv2_2_relu2_2_0_split_0
I0819 21:52:23.445030 13547 net.cpp:434] conv2_2_relu2_2_0_split -> conv2_2_relu2_2_0_split_1
I0819 21:52:23.445037 13547 net.cpp:156] Setting up conv2_2_relu2_2_0_split
I0819 21:52:23.445044 13547 net.cpp:164] Top shape: 1 128 284 284 (10323968)
I0819 21:52:23.445049 13547 net.cpp:164] Top shape: 1 128 284 284 (10323968)
I0819 21:52:23.445052 13547 layer_factory.hpp:76] Creating layer pool2
I0819 21:52:23.445058 13547 net.cpp:111] Creating Layer pool2
I0819 21:52:23.445062 13547 net.cpp:478] pool2 <- conv2_2_relu2_2_0_split_0
I0819 21:52:23.445068 13547 net.cpp:434] pool2 -> pool2
I0819 21:52:23.445081 13547 net.cpp:156] Setting up pool2
I0819 21:52:23.445087 13547 net.cpp:164] Top shape: 1 128 142 142 (2580992)
I0819 21:52:23.445091 13547 layer_factory.hpp:76] Creating layer conv3_1
I0819 21:52:23.445096 13547 net.cpp:111] Creating Layer conv3_1
I0819 21:52:23.445101 13547 net.cpp:478] conv3_1 <- pool2
I0819 21:52:23.445106 13547 net.cpp:434] conv3_1 -> conv3_1
I0819 21:52:23.446094 13547 net.cpp:156] Setting up conv3_1
I0819 21:52:23.446108 13547 net.cpp:164] Top shape: 1 256 142 142 (5161984)
I0819 21:52:23.446122 13547 layer_factory.hpp:76] Creating layer relu3_1
I0819 21:52:23.446130 13547 net.cpp:111] Creating Layer relu3_1
I0819 21:52:23.446135 13547 net.cpp:478] relu3_1 <- conv3_1
I0819 21:52:23.446141 13547 net.cpp:420] relu3_1 -> conv3_1 (in-place)
I0819 21:52:23.446148 13547 net.cpp:156] Setting up relu3_1
I0819 21:52:23.446154 13547 net.cpp:164] Top shape: 1 256 142 142 (5161984)
I0819 21:52:23.446158 13547 layer_factory.hpp:76] Creating layer conv3_2
I0819 21:52:23.446166 13547 net.cpp:111] Creating Layer conv3_2
I0819 21:52:23.446169 13547 net.cpp:478] conv3_2 <- conv3_1
I0819 21:52:23.446177 13547 net.cpp:434] conv3_2 -> conv3_2
I0819 21:52:23.447840 13547 net.cpp:156] Setting up conv3_2
I0819 21:52:23.448069 13547 net.cpp:164] Top shape: 1 256 142 142 (5161984)
I0819 21:52:23.448089 13547 layer_factory.hpp:76] Creating layer relu3_2
I0819 21:52:23.448109 13547 net.cpp:111] Creating Layer relu3_2
I0819 21:52:23.448115 13547 net.cpp:478] relu3_2 <- conv3_2
I0819 21:52:23.448124 13547 net.cpp:420] relu3_2 -> conv3_2 (in-place)
I0819 21:52:23.448135 13547 net.cpp:156] Setting up relu3_2
I0819 21:52:23.448139 13547 net.cpp:164] Top shape: 1 256 142 142 (5161984)
I0819 21:52:23.448141 13547 layer_factory.hpp:76] Creating layer conv3_3
I0819 21:52:23.448148 13547 net.cpp:111] Creating Layer conv3_3
I0819 21:52:23.448153 13547 net.cpp:478] conv3_3 <- conv3_2
I0819 21:52:23.448158 13547 net.cpp:434] conv3_3 -> conv3_3
I0819 21:52:23.449446 13547 net.cpp:156] Setting up conv3_3
I0819 21:52:23.449473 13547 net.cpp:164] Top shape: 1 256 142 142 (5161984)
I0819 21:52:23.449484 13547 layer_factory.hpp:76] Creating layer relu3_3
I0819 21:52:23.449501 13547 net.cpp:111] Creating Layer relu3_3
I0819 21:52:23.449507 13547 net.cpp:478] relu3_3 <- conv3_3
I0819 21:52:23.449517 13547 net.cpp:420] relu3_3 -> conv3_3 (in-place)
I0819 21:52:23.449529 13547 net.cpp:156] Setting up relu3_3
I0819 21:52:23.449535 13547 net.cpp:164] Top shape: 1 256 142 142 (5161984)
I0819 21:52:23.449539 13547 layer_factory.hpp:76] Creating layer conv3_3_relu3_3_0_split
I0819 21:52:23.449545 13547 net.cpp:111] Creating Layer conv3_3_relu3_3_0_split
I0819 21:52:23.449549 13547 net.cpp:478] conv3_3_relu3_3_0_split <- conv3_3
I0819 21:52:23.449556 13547 net.cpp:434] conv3_3_relu3_3_0_split -> conv3_3_relu3_3_0_split_0
I0819 21:52:23.449564 13547 net.cpp:434] conv3_3_relu3_3_0_split -> conv3_3_relu3_3_0_split_1
I0819 21:52:23.449573 13547 net.cpp:156] Setting up conv3_3_relu3_3_0_split
I0819 21:52:23.449576 13547 net.cpp:164] Top shape: 1 256 142 142 (5161984)
I0819 21:52:23.449581 13547 net.cpp:164] Top shape: 1 256 142 142 (5161984)
I0819 21:52:23.449585 13547 layer_factory.hpp:76] Creating layer pool3
I0819 21:52:23.449591 13547 net.cpp:111] Creating Layer pool3
I0819 21:52:23.449595 13547 net.cpp:478] pool3 <- conv3_3_relu3_3_0_split_0
I0819 21:52:23.449601 13547 net.cpp:434] pool3 -> pool3
I0819 21:52:23.449610 13547 net.cpp:156] Setting up pool3
I0819 21:52:23.449616 13547 net.cpp:164] Top shape: 1 256 71 71 (1290496)
I0819 21:52:23.449620 13547 layer_factory.hpp:76] Creating layer conv4_1
I0819 21:52:23.449628 13547 net.cpp:111] Creating Layer conv4_1
I0819 21:52:23.449632 13547 net.cpp:478] conv4_1 <- pool3
I0819 21:52:23.449641 13547 net.cpp:434] conv4_1 -> conv4_1
I0819 21:52:23.453116 13547 net.cpp:156] Setting up conv4_1
I0819 21:52:23.453140 13547 net.cpp:164] Top shape: 1 512 71 71 (2580992)
I0819 21:52:23.453152 13547 layer_factory.hpp:76] Creating layer relu4_1
I0819 21:52:23.453163 13547 net.cpp:111] Creating Layer relu4_1
I0819 21:52:23.453168 13547 net.cpp:478] relu4_1 <- conv4_1
I0819 21:52:23.453174 13547 net.cpp:420] relu4_1 -> conv4_1 (in-place)
I0819 21:52:23.453184 13547 net.cpp:156] Setting up relu4_1
I0819 21:52:23.453189 13547 net.cpp:164] Top shape: 1 512 71 71 (2580992)
I0819 21:52:23.453192 13547 layer_factory.hpp:76] Creating layer conv4_2
I0819 21:52:23.453202 13547 net.cpp:111] Creating Layer conv4_2
I0819 21:52:23.453205 13547 net.cpp:478] conv4_2 <- conv4_1
I0819 21:52:23.453214 13547 net.cpp:434] conv4_2 -> conv4_2
I0819 21:52:23.459781 13547 net.cpp:156] Setting up conv4_2
I0819 21:52:23.459816 13547 net.cpp:164] Top shape: 1 512 71 71 (2580992)
I0819 21:52:23.459838 13547 layer_factory.hpp:76] Creating layer relu4_2
I0819 21:52:23.459852 13547 net.cpp:111] Creating Layer relu4_2
I0819 21:52:23.459858 13547 net.cpp:478] relu4_2 <- conv4_2
I0819 21:52:23.459867 13547 net.cpp:420] relu4_2 -> conv4_2 (in-place)
I0819 21:52:23.459879 13547 net.cpp:156] Setting up relu4_2
I0819 21:52:23.459884 13547 net.cpp:164] Top shape: 1 512 71 71 (2580992)
I0819 21:52:23.459888 13547 layer_factory.hpp:76] Creating layer conv4_3
I0819 21:52:23.459897 13547 net.cpp:111] Creating Layer conv4_3
I0819 21:52:23.459902 13547 net.cpp:478] conv4_3 <- conv4_2
I0819 21:52:23.459908 13547 net.cpp:434] conv4_3 -> conv4_3
I0819 21:52:23.465312 13547 net.cpp:156] Setting up conv4_3
I0819 21:52:23.465339 13547 net.cpp:164] Top shape: 1 512 71 71 (2580992)
I0819 21:52:23.465353 13547 layer_factory.hpp:76] Creating layer relu4_3
I0819 21:52:23.465364 13547 net.cpp:111] Creating Layer relu4_3
I0819 21:52:23.465370 13547 net.cpp:478] relu4_3 <- conv4_3
I0819 21:52:23.465378 13547 net.cpp:420] relu4_3 -> conv4_3 (in-place)
I0819 21:52:23.465384 13547 net.cpp:156] Setting up relu4_3
I0819 21:52:23.465389 13547 net.cpp:164] Top shape: 1 512 71 71 (2580992)
I0819 21:52:23.465391 13547 layer_factory.hpp:76] Creating layer conv4_3_relu4_3_0_split
I0819 21:52:23.465396 13547 net.cpp:111] Creating Layer conv4_3_relu4_3_0_split
I0819 21:52:23.465401 13547 net.cpp:478] conv4_3_relu4_3_0_split <- conv4_3
I0819 21:52:23.465410 13547 net.cpp:434] conv4_3_relu4_3_0_split -> conv4_3_relu4_3_0_split_0
I0819 21:52:23.465416 13547 net.cpp:434] conv4_3_relu4_3_0_split -> conv4_3_relu4_3_0_split_1
I0819 21:52:23.465422 13547 net.cpp:156] Setting up conv4_3_relu4_3_0_split
I0819 21:52:23.465427 13547 net.cpp:164] Top shape: 1 512 71 71 (2580992)
I0819 21:52:23.465430 13547 net.cpp:164] Top shape: 1 512 71 71 (2580992)
I0819 21:52:23.465433 13547 layer_factory.hpp:76] Creating layer pool4
I0819 21:52:23.465438 13547 net.cpp:111] Creating Layer pool4
I0819 21:52:23.465441 13547 net.cpp:478] pool4 <- conv4_3_relu4_3_0_split_0
I0819 21:52:23.465448 13547 net.cpp:434] pool4 -> pool4
I0819 21:52:23.465458 13547 net.cpp:156] Setting up pool4
I0819 21:52:23.465464 13547 net.cpp:164] Top shape: 1 512 36 36 (663552)
I0819 21:52:23.465468 13547 layer_factory.hpp:76] Creating layer conv5_1
I0819 21:52:23.465478 13547 net.cpp:111] Creating Layer conv5_1
I0819 21:52:23.465483 13547 net.cpp:478] conv5_1 <- pool4
I0819 21:52:23.465489 13547 net.cpp:434] conv5_1 -> conv5_1
I0819 21:52:23.471068 13547 net.cpp:156] Setting up conv5_1
I0819 21:52:23.471094 13547 net.cpp:164] Top shape: 1 512 36 36 (663552)
I0819 21:52:23.471107 13547 layer_factory.hpp:76] Creating layer relu5_1
I0819 21:52:23.471117 13547 net.cpp:111] Creating Layer relu5_1
I0819 21:52:23.471122 13547 net.cpp:478] relu5_1 <- conv5_1
I0819 21:52:23.471130 13547 net.cpp:420] relu5_1 -> conv5_1 (in-place)
I0819 21:52:23.471140 13547 net.cpp:156] Setting up relu5_1
I0819 21:52:23.471145 13547 net.cpp:164] Top shape: 1 512 36 36 (663552)
I0819 21:52:23.471149 13547 layer_factory.hpp:76] Creating layer conv5_2
I0819 21:52:23.471158 13547 net.cpp:111] Creating Layer conv5_2
I0819 21:52:23.471163 13547 net.cpp:478] conv5_2 <- conv5_1
I0819 21:52:23.471168 13547 net.cpp:434] conv5_2 -> conv5_2
I0819 21:52:23.475953 13547 net.cpp:156] Setting up conv5_2
I0819 21:52:23.475984 13547 net.cpp:164] Top shape: 1 512 36 36 (663552)
I0819 21:52:23.475997 13547 layer_factory.hpp:76] Creating layer relu5_2
I0819 21:52:23.476022 13547 net.cpp:111] Creating Layer relu5_2
I0819 21:52:23.476028 13547 net.cpp:478] relu5_2 <- conv5_2
I0819 21:52:23.476037 13547 net.cpp:420] relu5_2 -> conv5_2 (in-place)
I0819 21:52:23.476049 13547 net.cpp:156] Setting up relu5_2
I0819 21:52:23.476055 13547 net.cpp:164] Top shape: 1 512 36 36 (663552)
I0819 21:52:23.476059 13547 layer_factory.hpp:76] Creating layer conv5_3
I0819 21:52:23.476068 13547 net.cpp:111] Creating Layer conv5_3
I0819 21:52:23.476070 13547 net.cpp:478] conv5_3 <- conv5_2
I0819 21:52:23.476076 13547 net.cpp:434] conv5_3 -> conv5_3
I0819 21:52:23.480846 13547 net.cpp:156] Setting up conv5_3
I0819 21:52:23.480878 13547 net.cpp:164] Top shape: 1 512 36 36 (663552)
I0819 21:52:23.480888 13547 layer_factory.hpp:76] Creating layer relu5_3
I0819 21:52:23.480897 13547 net.cpp:111] Creating Layer relu5_3
I0819 21:52:23.480902 13547 net.cpp:478] relu5_3 <- conv5_3
I0819 21:52:23.480912 13547 net.cpp:420] relu5_3 -> conv5_3 (in-place)
I0819 21:52:23.480921 13547 net.cpp:156] Setting up relu5_3
I0819 21:52:23.480924 13547 net.cpp:164] Top shape: 1 512 36 36 (663552)
I0819 21:52:23.480927 13547 layer_factory.hpp:76] Creating layer score-dsn1
I0819 21:52:23.480937 13547 net.cpp:111] Creating Layer score-dsn1
I0819 21:52:23.480942 13547 net.cpp:478] score-dsn1 <- conv1_2_relu1_2_0_split_1
I0819 21:52:23.480952 13547 net.cpp:434] score-dsn1 -> score-dsn1-up
I0819 21:52:23.481842 13547 net.cpp:156] Setting up score-dsn1
I0819 21:52:23.481855 13547 net.cpp:164] Top shape: 1 1 568 568 (322624)
I0819 21:52:23.481865 13547 layer_factory.hpp:76] Creating layer crop
I0819 21:52:23.481873 13547 net.cpp:111] Creating Layer crop
I0819 21:52:23.481878 13547 net.cpp:478] crop <- score-dsn1-up
I0819 21:52:23.481882 13547 net.cpp:478] crop <- data_input_0_split_1
I0819 21:52:23.481887 13547 net.cpp:434] crop -> upscore-dsn1
I0819 21:52:23.481922 13547 net.cpp:156] Setting up crop
I0819 21:52:23.481930 13547 net.cpp:164] Top shape: 1 1 500 500 (250000)
I0819 21:52:23.481933 13547 layer_factory.hpp:76] Creating layer upscore-dsn1_crop_0_split
I0819 21:52:23.481938 13547 net.cpp:111] Creating Layer upscore-dsn1_crop_0_split
I0819 21:52:23.481941 13547 net.cpp:478] upscore-dsn1_crop_0_split <- upscore-dsn1
I0819 21:52:23.481947 13547 net.cpp:434] upscore-dsn1_crop_0_split -> upscore-dsn1_crop_0_split_0
I0819 21:52:23.481956 13547 net.cpp:434] upscore-dsn1_crop_0_split -> upscore-dsn1_crop_0_split_1
I0819 21:52:23.481964 13547 net.cpp:156] Setting up upscore-dsn1_crop_0_split
I0819 21:52:23.481971 13547 net.cpp:164] Top shape: 1 1 500 500 (250000)
I0819 21:52:23.481976 13547 net.cpp:164] Top shape: 1 1 500 500 (250000)
I0819 21:52:23.481979 13547 layer_factory.hpp:76] Creating layer sigmoid-dsn1
I0819 21:52:23.481984 13547 net.cpp:111] Creating Layer sigmoid-dsn1
I0819 21:52:23.481987 13547 net.cpp:478] sigmoid-dsn1 <- upscore-dsn1_crop_0_split_0
I0819 21:52:23.481992 13547 net.cpp:434] sigmoid-dsn1 -> sigmoid-dsn1
I0819 21:52:23.482004 13547 net.cpp:156] Setting up sigmoid-dsn1
I0819 21:52:23.482010 13547 net.cpp:164] Top shape: 1 1 500 500 (250000)
I0819 21:52:23.482013 13547 layer_factory.hpp:76] Creating layer score-dsn2
I0819 21:52:23.482017 13547 net.cpp:111] Creating Layer score-dsn2
I0819 21:52:23.482022 13547 net.cpp:478] score-dsn2 <- conv2_2_relu2_2_0_split_1
I0819 21:52:23.482028 13547 net.cpp:434] score-dsn2 -> score-dsn2
I0819 21:52:23.482151 13547 net.cpp:156] Setting up score-dsn2
I0819 21:52:23.482161 13547 net.cpp:164] Top shape: 1 1 284 284 (80656)
I0819 21:52:23.482168 13547 layer_factory.hpp:76] Creating layer upsample_2
I0819 21:52:23.482177 13547 net.cpp:111] Creating Layer upsample_2
I0819 21:52:23.482182 13547 net.cpp:478] upsample_2 <- score-dsn2
I0819 21:52:23.482187 13547 net.cpp:434] upsample_2 -> score-dsn2-up
I0819 21:52:23.483026 13547 net.cpp:156] Setting up upsample_2
I0819 21:52:23.483044 13547 net.cpp:164] Top shape: 1 1 570 570 (324900)
I0819 21:52:23.483055 13547 layer_factory.hpp:76] Creating layer crop
I0819 21:52:23.483064 13547 net.cpp:111] Creating Layer crop
I0819 21:52:23.483069 13547 net.cpp:478] crop <- score-dsn2-up
I0819 21:52:23.483076 13547 net.cpp:478] crop <- data_input_0_split_2
I0819 21:52:23.483083 13547 net.cpp:434] crop -> upscore-dsn2
I0819 21:52:23.483124 13547 net.cpp:156] Setting up crop
I0819 21:52:23.483130 13547 net.cpp:164] Top shape: 1 1 500 500 (250000)
I0819 21:52:23.483134 13547 layer_factory.hpp:76] Creating layer upscore-dsn2_crop_0_split
I0819 21:52:23.483140 13547 net.cpp:111] Creating Layer upscore-dsn2_crop_0_split
I0819 21:52:23.483144 13547 net.cpp:478] upscore-dsn2_crop_0_split <- upscore-dsn2
I0819 21:52:23.483150 13547 net.cpp:434] upscore-dsn2_crop_0_split -> upscore-dsn2_crop_0_split_0
I0819 21:52:23.483157 13547 net.cpp:434] upscore-dsn2_crop_0_split -> upscore-dsn2_crop_0_split_1
I0819 21:52:23.483165 13547 net.cpp:156] Setting up upscore-dsn2_crop_0_split
I0819 21:52:23.483168 13547 net.cpp:164] Top shape: 1 1 500 500 (250000)
I0819 21:52:23.483172 13547 net.cpp:164] Top shape: 1 1 500 500 (250000)
I0819 21:52:23.483175 13547 layer_factory.hpp:76] Creating layer sigmoid-dsn2
I0819 21:52:23.483180 13547 net.cpp:111] Creating Layer sigmoid-dsn2
I0819 21:52:23.483182 13547 net.cpp:478] sigmoid-dsn2 <- upscore-dsn2_crop_0_split_0
I0819 21:52:23.483189 13547 net.cpp:434] sigmoid-dsn2 -> sigmoid-dsn2
I0819 21:52:23.483197 13547 net.cpp:156] Setting up sigmoid-dsn2
I0819 21:52:23.483202 13547 net.cpp:164] Top shape: 1 1 500 500 (250000)
I0819 21:52:23.483206 13547 layer_factory.hpp:76] Creating layer score-dsn3
I0819 21:52:23.483214 13547 net.cpp:111] Creating Layer score-dsn3
I0819 21:52:23.483218 13547 net.cpp:478] score-dsn3 <- conv3_3_relu3_3_0_split_1
I0819 21:52:23.483227 13547 net.cpp:434] score-dsn3 -> score-dsn3
I0819 21:52:23.483309 13547 net.cpp:156] Setting up score-dsn3
I0819 21:52:23.483317 13547 net.cpp:164] Top shape: 1 1 142 142 (20164)
I0819 21:52:23.483333 13547 layer_factory.hpp:76] Creating layer upsample_4
I0819 21:52:23.483342 13547 net.cpp:111] Creating Layer upsample_4
I0819 21:52:23.483347 13547 net.cpp:478] upsample_4 <- score-dsn3
I0819 21:52:23.483355 13547 net.cpp:434] upsample_4 -> score-dsn3-up
I0819 21:52:23.484165 13547 net.cpp:156] Setting up upsample_4
I0819 21:52:23.484179 13547 net.cpp:164] Top shape: 1 1 572 572 (327184)
I0819 21:52:23.484186 13547 layer_factory.hpp:76] Creating layer crop
I0819 21:52:23.484194 13547 net.cpp:111] Creating Layer crop
I0819 21:52:23.484200 13547 net.cpp:478] crop <- score-dsn3-up
I0819 21:52:23.484205 13547 net.cpp:478] crop <- data_input_0_split_3
I0819 21:52:23.484212 13547 net.cpp:434] crop -> upscore-dsn3
I0819 21:52:23.484266 13547 net.cpp:156] Setting up crop
I0819 21:52:23.484273 13547 net.cpp:164] Top shape: 1 1 500 500 (250000)
I0819 21:52:23.484277 13547 layer_factory.hpp:76] Creating layer upscore-dsn3_crop_0_split
I0819 21:52:23.484284 13547 net.cpp:111] Creating Layer upscore-dsn3_crop_0_split
I0819 21:52:23.484288 13547 net.cpp:478] upscore-dsn3_crop_0_split <- upscore-dsn3
I0819 21:52:23.484297 13547 net.cpp:434] upscore-dsn3_crop_0_split -> upscore-dsn3_crop_0_split_0
I0819 21:52:23.484303 13547 net.cpp:434] upscore-dsn3_crop_0_split -> upscore-dsn3_crop_0_split_1
I0819 21:52:23.484310 13547 net.cpp:156] Setting up upscore-dsn3_crop_0_split
I0819 21:52:23.484316 13547 net.cpp:164] Top shape: 1 1 500 500 (250000)
I0819 21:52:23.484321 13547 net.cpp:164] Top shape: 1 1 500 500 (250000)
I0819 21:52:23.484326 13547 layer_factory.hpp:76] Creating layer sigmoid-dsn3
I0819 21:52:23.484333 13547 net.cpp:111] Creating Layer sigmoid-dsn3
I0819 21:52:23.484338 13547 net.cpp:478] sigmoid-dsn3 <- upscore-dsn3_crop_0_split_0
I0819 21:52:23.484344 13547 net.cpp:434] sigmoid-dsn3 -> sigmoid-dsn3
I0819 21:52:23.484354 13547 net.cpp:156] Setting up sigmoid-dsn3
I0819 21:52:23.484359 13547 net.cpp:164] Top shape: 1 1 500 500 (250000)
I0819 21:52:23.484364 13547 layer_factory.hpp:76] Creating layer score-dsn4
I0819 21:52:23.484406 13547 net.cpp:111] Creating Layer score-dsn4
I0819 21:52:23.484413 13547 net.cpp:478] score-dsn4 <- conv4_3_relu4_3_0_split_1
I0819 21:52:23.484421 13547 net.cpp:434] score-dsn4 -> score-dsn4
I0819 21:52:23.484508 13547 net.cpp:156] Setting up score-dsn4
I0819 21:52:23.484515 13547 net.cpp:164] Top shape: 1 1 71 71 (5041)
I0819 21:52:23.484522 13547 layer_factory.hpp:76] Creating layer upsample_8
I0819 21:52:23.484529 13547 net.cpp:111] Creating Layer upsample_8
I0819 21:52:23.484534 13547 net.cpp:478] upsample_8 <- score-dsn4
I0819 21:52:23.484544 13547 net.cpp:434] upsample_8 -> score-dsn4-up
I0819 21:52:23.485381 13547 net.cpp:156] Setting up upsample_8
I0819 21:52:23.485394 13547 net.cpp:164] Top shape: 1 1 576 576 (331776)
I0819 21:52:23.485402 13547 layer_factory.hpp:76] Creating layer crop
I0819 21:52:23.485410 13547 net.cpp:111] Creating Layer crop
I0819 21:52:23.485415 13547 net.cpp:478] crop <- score-dsn4-up
I0819 21:52:23.485422 13547 net.cpp:478] crop <- data_input_0_split_4
I0819 21:52:23.485431 13547 net.cpp:434] crop -> upscore-dsn4
I0819 21:52:23.485491 13547 net.cpp:156] Setting up crop
I0819 21:52:23.485499 13547 net.cpp:164] Top shape: 1 1 500 500 (250000)
I0819 21:52:23.485503 13547 layer_factory.hpp:76] Creating layer upscore-dsn4_crop_0_split
I0819 21:52:23.485510 13547 net.cpp:111] Creating Layer upscore-dsn4_crop_0_split
I0819 21:52:23.485514 13547 net.cpp:478] upscore-dsn4_crop_0_split <- upscore-dsn4
I0819 21:52:23.485522 13547 net.cpp:434] upscore-dsn4_crop_0_split -> upscore-dsn4_crop_0_split_0
I0819 21:52:23.485529 13547 net.cpp:434] upscore-dsn4_crop_0_split -> upscore-dsn4_crop_0_split_1
I0819 21:52:23.485538 13547 net.cpp:156] Setting up upscore-dsn4_crop_0_split
I0819 21:52:23.485543 13547 net.cpp:164] Top shape: 1 1 500 500 (250000)
I0819 21:52:23.485548 13547 net.cpp:164] Top shape: 1 1 500 500 (250000)
I0819 21:52:23.485550 13547 layer_factory.hpp:76] Creating layer sigmoid-dsn4
I0819 21:52:23.485558 13547 net.cpp:111] Creating Layer sigmoid-dsn4
I0819 21:52:23.485561 13547 net.cpp:478] sigmoid-dsn4 <- upscore-dsn4_crop_0_split_0
I0819 21:52:23.485568 13547 net.cpp:434] sigmoid-dsn4 -> sigmoid-dsn4
I0819 21:52:23.485574 13547 net.cpp:156] Setting up sigmoid-dsn4
I0819 21:52:23.485580 13547 net.cpp:164] Top shape: 1 1 500 500 (250000)
I0819 21:52:23.485584 13547 layer_factory.hpp:76] Creating layer score-dsn5
I0819 21:52:23.485591 13547 net.cpp:111] Creating Layer score-dsn5
I0819 21:52:23.485596 13547 net.cpp:478] score-dsn5 <- conv5_3
I0819 21:52:23.485605 13547 net.cpp:434] score-dsn5 -> score-dsn5
I0819 21:52:23.485683 13547 net.cpp:156] Setting up score-dsn5
I0819 21:52:23.485692 13547 net.cpp:164] Top shape: 1 1 36 36 (1296)
I0819 21:52:23.485700 13547 layer_factory.hpp:76] Creating layer upsample_16
I0819 21:52:23.485709 13547 net.cpp:111] Creating Layer upsample_16
I0819 21:52:23.485714 13547 net.cpp:478] upsample_16 <- score-dsn5
I0819 21:52:23.485721 13547 net.cpp:434] upsample_16 -> score-dsn5-up
I0819 21:52:23.486685 13547 net.cpp:156] Setting up upsample_16
I0819 21:52:23.486702 13547 net.cpp:164] Top shape: 1 1 592 592 (350464)
I0819 21:52:23.486713 13547 layer_factory.hpp:76] Creating layer crop
I0819 21:52:23.486724 13547 net.cpp:111] Creating Layer crop
I0819 21:52:23.486729 13547 net.cpp:478] crop <- score-dsn5-up
I0819 21:52:23.486737 13547 net.cpp:478] crop <- data_input_0_split_5
I0819 21:52:23.486743 13547 net.cpp:434] crop -> upscore-dsn5
I0819 21:52:23.486805 13547 net.cpp:156] Setting up crop
I0819 21:52:23.486812 13547 net.cpp:164] Top shape: 1 1 500 500 (250000)
I0819 21:52:23.486816 13547 layer_factory.hpp:76] Creating layer upscore-dsn5_crop_0_split
I0819 21:52:23.486824 13547 net.cpp:111] Creating Layer upscore-dsn5_crop_0_split
I0819 21:52:23.486827 13547 net.cpp:478] upscore-dsn5_crop_0_split <- upscore-dsn5
I0819 21:52:23.486835 13547 net.cpp:434] upscore-dsn5_crop_0_split -> upscore-dsn5_crop_0_split_0
I0819 21:52:23.486843 13547 net.cpp:434] upscore-dsn5_crop_0_split -> upscore-dsn5_crop_0_split_1
I0819 21:52:23.486851 13547 net.cpp:156] Setting up upscore-dsn5_crop_0_split
I0819 21:52:23.486856 13547 net.cpp:164] Top shape: 1 1 500 500 (250000)
I0819 21:52:23.486860 13547 net.cpp:164] Top shape: 1 1 500 500 (250000)
I0819 21:52:23.486862 13547 layer_factory.hpp:76] Creating layer sigmoid-dsn5
I0819 21:52:23.486868 13547 net.cpp:111] Creating Layer sigmoid-dsn5
I0819 21:52:23.486873 13547 net.cpp:478] sigmoid-dsn5 <- upscore-dsn5_crop_0_split_0
I0819 21:52:23.486881 13547 net.cpp:434] sigmoid-dsn5 -> sigmoid-dsn5
I0819 21:52:23.486888 13547 net.cpp:156] Setting up sigmoid-dsn5
I0819 21:52:23.486896 13547 net.cpp:164] Top shape: 1 1 500 500 (250000)
I0819 21:52:23.486901 13547 layer_factory.hpp:76] Creating layer concat
I0819 21:52:23.486908 13547 net.cpp:111] Creating Layer concat
I0819 21:52:23.486912 13547 net.cpp:478] concat <- upscore-dsn1_crop_0_split_1
I0819 21:52:23.486918 13547 net.cpp:478] concat <- upscore-dsn2_crop_0_split_1
I0819 21:52:23.486922 13547 net.cpp:478] concat <- upscore-dsn3_crop_0_split_1
I0819 21:52:23.486925 13547 net.cpp:478] concat <- upscore-dsn4_crop_0_split_1
I0819 21:52:23.486929 13547 net.cpp:478] concat <- upscore-dsn5_crop_0_split_1
I0819 21:52:23.486938 13547 net.cpp:434] concat -> concat-upscore
I0819 21:52:23.486950 13547 net.cpp:156] Setting up concat
I0819 21:52:23.486958 13547 net.cpp:164] Top shape: 1 5 500 500 (1250000)
I0819 21:52:23.486961 13547 layer_factory.hpp:76] Creating layer new-score-weighting
I0819 21:52:23.486969 13547 net.cpp:111] Creating Layer new-score-weighting
I0819 21:52:23.486974 13547 net.cpp:478] new-score-weighting <- concat-upscore
I0819 21:52:23.486982 13547 net.cpp:434] new-score-weighting -> upscore-fuse
I0819 21:52:23.489451 13547 net.cpp:156] Setting up new-score-weighting
I0819 21:52:23.489466 13547 net.cpp:164] Top shape: 1 1 500 500 (250000)
I0819 21:52:23.489476 13547 layer_factory.hpp:76] Creating layer sigmoid-fuse
I0819 21:52:23.489485 13547 net.cpp:111] Creating Layer sigmoid-fuse
I0819 21:52:23.489491 13547 net.cpp:478] sigmoid-fuse <- upscore-fuse
I0819 21:52:23.489498 13547 net.cpp:434] sigmoid-fuse -> sigmoid-fuse
I0819 21:52:23.489509 13547 net.cpp:156] Setting up sigmoid-fuse
I0819 21:52:23.489514 13547 net.cpp:164] Top shape: 1 1 500 500 (250000)
I0819 21:52:23.489517 13547 net.cpp:241] sigmoid-fuse does not need backward computation.
I0819 21:52:23.489522 13547 net.cpp:241] new-score-weighting does not need backward computation.
I0819 21:52:23.489526 13547 net.cpp:241] concat does not need backward computation.
I0819 21:52:23.489533 13547 net.cpp:241] sigmoid-dsn5 does not need backward computation.
I0819 21:52:23.489542 13547 net.cpp:241] upscore-dsn5_crop_0_split does not need backward computation.
…
